HW4/actor.pth (torch, 501335 bytes, 6 tensors)

weight f4 [400, 8]
00000000: ad39 123e 5063 efbd fedd 16bf 19a3 48be
00000010: 7945 9ebd d5aa 95be dd71 683e 4732 e3be
00000020: b4bb 92be 6dd1 b3be 7950 83be 04a6 79ba
00000030: d1e0 d9bb 587d a13d c793 e6be 1cbb 65be
00000040: 6e83 143d 7581 473d b30c c93e 944d 503e
00000050: d79a 2d3e 8774 96bd 73c1 c4be e0a8 82be
00000060: 4337 e7bc 727e e7be 8275 d23e 865c d93e
00000070: 8b14 a23e 8751 d03e 7f07 533e 7809 f4b9
00000080: 744e 673d 5825 d2bd d012 273f db4d 133f
00000090: bb5a 00be 1270 f73e e8d9 5bbe 159e d9be
000000a0: c8ca a4be 6c4c 163d 1682 0e3f a667 003f
000000b0: 5e33 3cbe acba c53e 1d9a 2fbf 44cd 163e
000000c0: 1975 b7be 54d5 72be bad0 1dbe 3630 a7be
000000d0: 5275 d3bd 4e62 ed3e 2972 e3be bf37 e33e
000000e0: 6e87 11bf 27a0 a1be ec38 e13d 7bb2 5c3e
000000f0: 207a 1bbe b01d 39be 04c8 cb3e 2f2a 883e
00000100: f09f 013d b736 36bd 5b87 5ebe 9d12 1ebf
00000110: beaf dfbd 7a0b 13bf 2f01 68bd f0cb 973e
00000120: 4317 f4bd 8e92 3cbe 0f79 10bf 743e 31bc
00000130: dac1 d8bc ad8f 7d3e ff46 f23d 1b6d 02be
00000140: a4d3 b13d 7b8a a2be 4d96 843e fdf9 223f
00000150: 29f8 713d 9b7d f53e 6976 623a d1e5 2c3e
00000160: c56d cebe ca6f 38be 0903 51bf 0156 2cbf
00000170: 8b1a 21be f319 6ebe 5efd 9f3e 80b9 973c
00000180: b98c 2f3e 0e41 abbd 037d 393e 4cdb abbd
00000190: c5aa 2c3e 0f36 4bbe 80e3 e5be 6c24 ed3d
000001a0: be0a 7bbd 85b8 dc3e bf7a 423f 418e b5be
000001b0: 37e4 cbbd 704f 38bf 7efa cebe da54 b8be
000001c0: 1918 f8bd a84d 70be 4735 683e a100 bebe
000001d0: 6727 85be f466 2cbf a0d7 edbe f558 51bd
000001e0: 2db1 cdbe d265 88be 5b3b 873e 7eef 2cbf
000001f0: 80dc fa3d 25a8 593e 985f a23e c6d6 5f3d
00000200: 3cc5 463e 29af 0f3e dbe7 1f3f f7d7 333f
00000210: c00d 1b3e 663c 73bd a4af dabe fcf7 34be
00000220: 0b9e 263e fa8a febe e028 81be 10a4 7ebd
00000230: f6aa 5a3e 4a5d 91bd 124b ccbe 6d0c c73e
00000240: f34d c3be 5382 e8bd 0fc2 da3f 472c b7be
00000250: 5872 1f3e 17fe c6be 759c d33d ed02 9ebe
00000260: 1fa4 a5be 0ce7 c3be 4e54 eb3d c375 07bd
00000270: e299 293d 4f40 253e 33ff fcbe ec92 03be
00000280: 5af2 b0be 5b69 5fbe 3e51 8a3e 802d da3c
00000290: 4b45 9dbd 5e4b 1d3f fd95 ae3e 5289 f33c
000002a0: 59c3 5cbd 7ae5 c0be 8189 f5be e989 4ebf
000002b0: 73b0 c9bd 3520 a1be 2df2 6dbb 912d 2a3e
000002c0: b156 e13d 5157 6abb fc4e 943d e850 243f
000002d0: 7e93 3e3e c2d7 b83e 456a 65be a270 643c
000002e0: c601 133e c6e0 67be df5b 773e f07f 10bf
000002f0: 5f7b 653c 7bec febe 2c1f 713e 47f3 53bb
00000300: 1d0d e93d 2dd1 20be 470e cf3d 0a08 0e3e
00000310: 18de 543e 8712 f7bd 3f1f 183e 2c48 d8be
00000320: 427d 0d3d 605b cf3e b7ae 1d3f 3a87 edbe
00000330: 9c85 e43d fc79 ddbe 4f01 53ba 6ba7 1ebd
00000340: 65cb c8bd faaf e8bd 2cc0 c73f 99da 55bd
00000350: da8e 4fbe ac43 abbe fdc3 00bd 8ffe 8abe
00000360: bc45 08be 737f 74be 2d5d afbe 5b5f 9bbe
00000370: 22a8 ccbd 1c9a 1cbc cf81 abbd 33a5 0f3e
00000380: d45e babe b181 eb3c 6743 633e 9527 6d3e
00000390: 36b0 d7bc 46c7 453e e817 07bf 81b3 d13d
000003a0: 518b 39bd 3125 ff3d d9b7 47be 52d5 f43e
000003b0: 38a5 573e 9fbb d6bd 2458 dbbd ce3d 50bc
000003c0: ff6e 94bd 020c a03c ce99 c3bd 3241 e0bd
000003d0: fd44 2e3d 1f06 31bf a9d2 ce3e fbd7 a4be
000003e0: a6df 26be a86c 22bf bdfe 663d 84c8 8e3e
000003f0: 0fdd 4d3e 738d 923e ba13 9d3e b47c d1be
0.14279814 -0.11688864 -0.58932483 -0.19593467 -0.077280946 -0.29231897 0.22699685 -0.44374296
-0.2865883 -0.35120717 -0.25647333 -0.00095233344 -0.0066491147 0.078852355 -0.4503462 -0.22434658
0.036258154 0.048707444 0.392675 0.20342094 0.16953598 -0.073464446 -0.3842884 -0.25519466
-0.028224593 -0.45213658 0.41105276 0.42453402 0.31656298 0.406872 0.20608328 -0.0004654636
0.056471303 -0.10261029 0.6526308 0.57540673 -0.12534611 0.4832769 -0.21469843 -0.4250342
-0.3218596 0.036693975 0.55667245 0.50158155 -0.1837897 0.38618982 -0.68594533 0.1472674
-0.35831526 -0.2371419 -0.15411654 -0.3265397 -0.103251114 0.46364063 -0.44423035 0.44378468
-0.56847274 -0.315675 0.10997185 0.2155246 -0.15183306 -0.18077731 0.39801037 0.26594684
0.03164667 -0.044485774 -0.21731322 -0.6174715 -0.10922192 -0.57439387 -0.056641754 0.2964778
-0.11918499 -0.18415281 -0.5643472 -0.010818113 -0.026459623 0.24761839 0.11829948 -0.12736933
0.08682945 -0.31746277 0.2589592 0.636627 0.059074555 0.47947392 0.00086388603 0.16884543
-0.40318123 -0.18011394 -0.81645256 -0.6731873 -0.15732782 -0.23252086 0.3124799 0.01852107
0.17143525 -0.083620176 0.18114094 -0.08391437 0.16862018 -0.1984484 -0.4490013 0.115792125
-0.06128954 0.43109527 0.75968546 -0.35460094 -0.09955638 -0.7199621 -0.40425485 -0.36002237
-0.12113971 -0.23467124 0.22676574 -0.37109855 -0.26006624 -0.67344594 -0.4645357 -0.051110227
-0.40174237 -0.26640183 0.26412472 -0.67552936 0.12249088 0.21255548 0.31713557 0.054648183
0.19411176 0.14031662 0.6246316 0.7025141 0.15141964 -0.059383772 -0.42712128 -0.17672724
0.16271226 -0.49715406 -0.25226498 -0.06216818 0.21354279 -0.070978716 -0.39901024 0.38876668
-0.38145408 -0.11352982 1.7090472 -0.35775968 0.15570962 -0.3886573 0.10332576 -0.30861607
-0.32351777 -0.38262212 0.11490689 -0.03307129 0.04140652 0.16137813 -0.49413452 -0.12849015
-0.345599 -0.21817534 0.27015108 0.026633024 -0.07679232 0.61443126 0.34098807 0.029728565
-0.053897236 -0.37675077 -0.4795647 -0.80679184 -0.09848108 -0.31469885 -0.0036307678 0.16618945
0.11002863 -0.003575761 0.072416276 0.64185953 0.18610951 0.3610211 -0.2240382 0.013942869
0.14356145 -0.22644338 0.2415614 -0.5644522 0.014006465 -0.49789795 0.23547047 -0.003234105
0.11379454 -0.15704794 0.10110145 0.13870254 0.20787847 -0.12064081 0.1485567 -0.42242563
0.034543283 0.404994 0.6159472 -0.46392232 0.111582965 -0.4325713 -0.0008049206 -0.03873388
-0.098044194 -0.1136169 1.5605521 -0.052210424 -0.20269337 -0.33450067 -0.03143691 -0.27147338
-0.13307852 -0.23876743 -0.34250775 -0.30346188 -0.09993006 -0.009558227 -0.083743684 0.14027862
-0.36400473 0.028748365 0.2219368 0.2315963 -0.026329141 0.19314298 -0.52770853 0.10239316
-0.045298878 0.124582656 -0.19503726 0.47819 0.2105912 -0.10485005 -0.10710171 -0.012710048
-0.07247733 0.019536976 -0.0955082 -0.10949935 0.04254626 -0.69149965 0.40395096 -0.3219603
-0.16296253 -0.63447046 0.05639528 0.27887356 0.20103858 0.28623542 0.30679113 -0.40915453

bias f4 [400]
00000000: 6127 63bd 552f 8dbe 84cf 523d 91bc eebe
00000010: 934d 75be 5c1d 51be d0aa 03be 6ad7 44bf
00000020: 1f16 3ebc 2c3c 923d fdbe a63d 2d44 493e
00000030: 6d4d 97be 54b3 0cbd 2f90 44be 3d44 a4bc
00000040: 6313 a03d 7475 ddbd 9311 313e 22bb 273d
00000050: 2243 5cbe 0f09 2e3e 5de2 9c3c a2b8 88bc
00000060: 004a a2be b5e2 23be c5f4 a23d 679c fa3d
00000070: f70b f33d 96b7 82bc ada9 09bd 02b5 9abe
00000080: 9786 ec3c e52c 32be 726f 743e 7642 03be
00000090: 46f0 a4bd 67de 3d3e d654 de3c 9c89 aebd
000000a0: 8984 a33c 6018 91be 3186 c23d 3a97 2b3e
000000b0: efc9 b1bd 081b 53bf 9b8f abbe 68a2 303e
000000c0: 773a 83bd 9cac c6bc 90b2 1a39 05f1 d7bc
000000d0: 20e8 cbbe ebc4 a3be 6d02 9fbc 5fb8 343d
000000e0: 5bec d3bd c025 0ebf c2e4 53be 1647 5ebe
000000f0: 24e7 cf3d 63b2 8abc 3e48 dfbe 418f 88bd
00000100: 1680 823d d56d debb cdf4 bbbe 1f09 cdbe
00000110: 73f0 d6be d71c abbc 60bf 5dbe 22cc a63c
00000120: 46f8 e5bd 13a0 a0be af3e 91be 648f c2be
00000130: f146 87be 7b77 823d 9b59 a1be f9ae f7bd
00000140: 2c18 dbbd f82c 3f3e f6f5 c4bd 634c 6c3e
00000150: c77b 64be 3792 6ebe fd54 a3bd 8346 8abe
00000160: d51b e73c ecde 82be f3d3 b83d f7c3 343e
00000170: e047 9b3d 651e 4abd 8bb4 213d 99cc bf3d
00000180: f526 59be c7bb d9bd 4353 b6be b530 193e
00000190: 4b32 fdbd db51 12bd c322 1ebe e1eb 18be
000001a0: 4945 75bd 05cb a03d 48ce 82bd 6506 d23d
000001b0: 188b 5f3e a5e2 5c3e ad9f 52be 980c 6a3e
000001c0: 540c 6ebc 6195 513e 9edc 90bb ffa1 a2be
000001d0: a227 89be caf2 37bd 743c 8e3d e233 40bf
000001e0: 7f5b 003e b0e7 b0be 6462 b2bd 5e12 123e
000001f0: 47ae 103e 4be8 67bb 2f6c 2ebd 1bc8 e7be
00000200: 55a6 94be a1c0 8cbe 8ab2 1e3d 726a 863e
00000210: 1a9b b23d 3f8d 06bf 6a3e d9be 2e09 2cbe
00000220: 9f7b 533c 53b3 b4bd 76d5 493a 28dd 93be
00000230: 585a f73d cc9b 84be 63da 2d3b ef88 30bf
00000240: b159 babe a726 35be 1a00 08bc 0171 183e
00000250: b3b1 e4be 0a4c 013e 4b0c c73c 261c 293e
00000260: ea12 ccbd a320 173e 9d0d 383b 2382 e13d
00000270: 4413 46be 809f 43bd 21d4 ccbd 365b 503d
00000280: 9166 05be c113 93be 81b2 15bf f792 fabe
00000290: 8ac2 56bd b154 c63d 9cd1 c13c f204 8dbd
000002a0: a813 bdbd 2468 17be 4fe3 983d 6830 b2be
000002b0: 9100 e63d 4aae f4bd 488a d1bd f636 84bd
000002c0: 783a 05bc a112 003e b34f 82be a4d1 47be
000002d0: b074 88bd ede0 0d3e 6ebf d43d a071 25bd
000002e0: 28ea 0dbd 596e 89bc cf58 da3d d789 56be
000002f0: f39a de3d 1ef9 323e 336f c1bd 9070 49be
00000300: 02d0 bfbe 909e 2a3d 562f 993d 8da6 23be
00000310: ffe0 163d e7df d83c dfa3 ba3d 9736 dd3d
00000320: bb1f 503d 6f2b 92be ef2d b0be 8a84 95be
00000330: 2a3a 0e3c 14eb 113e c300 69be 625f 0e3c
00000340: 0970 5cba af13 c5bd b0af 333e 2c29 ddb9
00000350: 3c84 a7bc 1800 8e3e dea0 03bd 20bc 023d
00000360: ae05 083e 455f acbe 4020 d7be fdf1 7d3d
00000370: 186c e0be 33e5 7bbe 3d38 5c3d 36df 0cbf
00000380: 793c 0c3e d4f8 90bd ff96 1abe c92b 323e
00000390: 4ba6 bfbd 26ee 0cbc bbe4 45be f107 343e
000003a0: 1a99 9bbd 73e3 1ebd cbd2 bfbb 52e3 8b3d
000003b0: 90f4 403e 2d72 3fbe 0b06 93be 3b91 02bf
000003c0: caa5 343e ce4d 703e 0801 e6bc 82a3 adbe
000003d0: edc0 a8bd f6fc 5d3e c69e 39bd d694 c6bd
000003e0: f902 82be 5e7e 743e f919 e0be fa4f b8be
000003f0: 4237 b6bd 44b5 95bd 9283 a33d e4a9 f13d
-0.055457477 -0.27575174 0.051467434 -0.4662824 -0.23955373 -0.20421356 -0.12858129 -0.76891196
-0.011601954 0.07140383 0.08141897 0.19654913 -0.2955126 -0.034350708 -0.19195627 -0.02005207
0.07816198 -0.10813418 0.1729186 0.040949948 -0.21509984 0.16995643 0.019150907 -0.016689602
-0.31697083 -0.1600445 0.07956842 0.12236863 0.118675165 -0.015956681 -0.03360908 -0.30216223
0.028872771 -0.17399938 0.23870638 -0.12818322 -0.08053641 0.18541871 0.027140062 -0.08522341
0.019960659 -0.2833891 0.09498251 0.16756907 -0.08681094 -0.8246312 -0.33508 0.17249453
-0.06407636 -0.024252228 0.00014753104 -0.026360044 -0.39825535 -0.31986174 -0.019410336 0.044121142
-0.103478156 -0.5552635 -0.20692733 -0.21706805 0.101515085 -0.016930765 -0.43609804 -0.066679485
0.06372087 -0.0067879953 -0.36710206 -0.4004602 -0.41980323 -0.020887775 -0.21655035 0.02036101
-0.11228995 -0.31372127 -0.28368136 -0.38000023 -0.26421311 0.06370445 -0.31513676 -0.1209392
-0.1069797 0.18669498 -0.09617226 0.23076014 -0.22312842 -0.23297964 -0.079751946 -0.2700692
0.028211514 -0.255607 0.09024801 0.1765288 0.075820684 -0.049345393 0.03947882 0.09365196
-0.21206267 -0.10631519 -0.356104 0.14959987 -0.12363108 -0.035722595 -0.15442948 -0.1493373
-0.05988053 0.07851223 -0.06387001 0.10255126 0.21830404 0.21570833 -0.20568724 0.22856367
-0.014529306 0.2046714 -0.004420831 -0.31764218 -0.2678805 -0.044909276 0.06945124 -0.75079167
0.12534903 -0.34551764 -0.08710173 0.14264819 0.14128982 -0.003538626 -0.04258364 -0.45269856
-0.2903315 -0.27490714 0.038744487 0.26253086 0.087209895 -0.52559274 -0.4243043 -0.16800377
0.0129078915 -0.08823266 0.00076993497 -0.28879666 0.120777786 -0.25900114 0.0026527874 -0.68958944
-0.36396554 -0.17690526 -0.008300805 0.14886858 -0.44666824 0.12626663 0.024297854 0.16514644
-0.09964545 0.14758544 0.0028084286 0.1101115 -0.19343287 -0.047759533 -0.10001398 0.050868236
-0.13027407 -0.2872601 -0.584755 -0.4894025 -0.05243162 0.09684122 0.02365952 -0.06885709
-0.09232265 -0.1478582 0.07465231 -0.34802556 0.11230577 -0.119473055 -0.10231453 -0.064557955
-0.008131616 0.12507106 -0.2545143 -0.19513565 -0.066628814 0.13855334 0.10388075 -0.040391564
-0.034647137 -0.01677625 0.1066147 -0.20951019 0.10869398 0.17477843 -0.09445038 -0.19671845
-0.37463385 0.041655123 0.07479732 -0.15981503 0.036835667 0.026473952 0.09113287 0.10801428
0.05081151 -0.28548762 -0.34410045 -0.29202682 0.00868086 0.14249831 -0.22754197 0.008689733
-0.00084090285 -0.09622895 0.17547488 -0.0004218308 -0.020448796 0.27734447 -0.032135837 0.03191769
0.13283417 -0.33666435 -0.42016792 0.061998356 -0.4383247 -0.24599151 0.05376457 -0.5502809
0.13694943 -0.0707871 -0.15096663 0.17399515 -0.0935789 -0.008601701 -0.19325535 0.17581154
-0.07597561 -0.03879113 -0.005853986 0.06830467 0.18843293 -0.18695898 -0.28715548 -0.51002854
0.17641369 0.2346718 -0.028076664 -0.3391381 -0.08239923 0.21678528 -0.045317434 -0.09696357
-0.25392893 0.2387633 -0.43769816 -0.35998517 -0.08897258 -0.07309964 0.079840794 0.11799982

weight f4 [300, 400]
00000000: 32cd 243d 5530 26bd bff0 1dbd 2773 65bd
00000010: 54ba 90bd 05d4 adbc ebe9 4fbd 2818 70bd
00000020: 2525 df3c d743 07be e59a 1ebe 060a 843d
00000030: 8a24 6c3d 0ce3 ea3d 6264 adbc 6d09 a6b9
00000040: d98c f3bb b28a b5b8 7a55 d8bd d99b 98bd
00000050: fcef a33d 62c1 003b eafc 34be 805f ac3d
00000060: c6a2 0f3d da56 8e3d c855 a3bd f641 0fbe
00000070: 27d0 31be 8c3d e3ba 2ea0 ab3d c692 c1bc
00000080: d538 be3c 7e1b 03be 21d9 9cbd f6a9 913d
00000090: 3af2 31be 26cc 2fbe 79a9 633d 4a4a 8fbd
000000a0: 7383 dcbd 8437 2b3e c261 873c 0568 b5bc
000000b0: 7bec e23d 375f 833c 6252 763a a0ef 10bd
000000c0: 1025 923d 46f3 89bd 5a4b b03c c684 ab3a
000000d0: f5f3 a2bc ec44 30bd b27b ad3d c706 50bd
000000e0: 0d32 b8bd f752 9fbd 3ba2 ae3d 4847 a63d
000000f0: d2e7 efbe 0e0b d8bd f733 f13b 166b 8dbe
00000100: 0a33 36be a2b9 e9bd ce02 c3bd e320 613c
00000110: ae6b b03c e28d 2f3e 9f57 a7bd 3c97 d6bd
00000120: 8055 febd c42b 663e 83e2 5d3c 13f2 97bd
00000130: e06c a43c 9fff e9bd b061 e9bb ae56 4f3d
00000140: c19f dd3a 766d c8bd da8a 56bd 2734 acbe
00000150: d1ca 12be 5d76 6f3d 4a61 c1bd 4286 bbbd
00000160: 246c 8f3d bbd1 ee3c 7ed0 71bc 625c 84bd
00000170: 73e6 113e c7af a83d 0ff0 bf3d 41a4 8bbe
00000180: 2812 e1bd 7a98 c43d 9c19 0dbe a000 78be
00000190: 306b 95bd 7de3 23be ba42 4bbd 459e 0ebe
000001a0: 965b 2a3e c9c5 53be fdf6 1b3d 74bb 44be
000001b0: 0926 893d 1cd7 96bb 4e41 373d 6590 813d
000001c0: df49 afbd ab98 743d c4a2 493e 0f0b 4fbe
000001d0: 144f 37be 8232 08bd 0d29 eebc 32e8 50bd
000001e0: a380 5e3d f3af 0e3b 1289 40bd c8c9 8e3c
000001f0: 9d62 aebc d511 0b3d 6cf3 26be 5a8f dfbc
00000200: de53 4c3d 0aae 6c3d ce21 aa3b c0ce c63c
00000210: 8e10 4a3d 6f7b 09bc 2b87 d13d b4fd 8d3b
00000220: 7f3b 0f3e b64c 1fbd fdda abbd fb09 85be
00000230: c8d2 a13a cb3f 293d d35a 97bd 5e52 3fbd
00000240: f1dd 64be be17 593d 6ade 853c 5c3b 24bc
00000250: 50e9 8ebb 30c0 75be 9d97 3dbd ca82 373c
00000260: f9a1 85bd 111a af3d 1d7f 77bd 75b7 833d
00000270: b551 0d3e ea74 f0bb 41a0 713d a187 10be
00000280: 5d4f a53d ffcc 32be ab6b 9bbc 3439 2dbd
00000290: b5ec 5cbd ead4 9fbd 0cee 773e 37f6 f3bd
000002a0: c31d 4cbe bbda e9bd 3ef3 ffbd ad80 5ebe
000002b0: 2b0c c8bd 6ab4 343e 2534 ffbd ad1e 31be
000002c0: 5c70 873d 4310 293c 7332 a0bd c133 ad3d
000002d0: 5e1e cebd e2e3 09bd bfc0 d93c 9526 49b9
000002e0: a243 19be 4704 0dbe 3b12 d73c 41c9 a7bd
000002f0: 8100 08bd dd36 d63c 9340 e7bd 221f f33c
00000300: a237 9bbd d20b 69bd d774 803d bb1e 20bd
00000310: 3a94 1bbd 473d 9cbe c130 5b3d 4702 3bbd
00000320: 3eb6 623c 62f4 c4bd 504b 053d 8479 0bbd
00000330: 2bd1 4f3d baeb 373e e401 1dbe 2c39 47bd
00000340: 2183 5e3d 8250 943c 0acc e2bd c399 b53d
00000350: d194 303b e787 c13b 19ed bbbd 12e7 aebd
00000360: b0a1 3cbe ea8f c23c 2229 233e 5d1b 67be
00000370: 5b44 dc3c 5d01 1b3d a12e ab3d d9b1 6fbd
00000380: ea7f 7f3d a8a4 463c 43ca 9d3d 8995 1abe
00000390: 2a34 823d 9f46 32be c77f b73d 9380 0cbf
000003a0: 606c e03d 1ba7 20bd 9084 e13c 37c1 3d3d
000003b0: 1ac2 54bf 4a08 6dbd 40f3 eebc e35f e8bd
000003c0: 1ddb 3e3e ba45 3dbd a807 74bd d934 063e
000003d0: ad87 dcbb 8ce6 a7bd de1a 523c 0099 533d
000003e0: 8c11 653d 02bd 1abd cdf6 39bd 2f47 22bb
000003f0: 844e 543d 8384 d1bd 3815 1b3e 7cc0 19bc
0.040234752 -0.040573437 -0.03855967 -0.05601802 -0.07066789 -0.021219263 -0.05076019 -0.058616787
0.027239392 -0.13209473 -0.15488775 0.06447224 0.057652034 0.11469087 -0.02116603 -0.0003166901
-0.007432562 -8.6565866e-05 -0.10563178 -0.074516006 0.08004758 0.0019646515 -0.17674604 0.08416653
0.035067342 0.06950159 -0.07975346 -0.13990006 -0.1736456 -0.0017337068 0.08380161 -0.023629557
0.023220459 -0.12803456 -0.076586016 0.071124956 -0.17377558 -0.1716772 0.055581544 -0.069965914
-0.107672594 0.16720396 0.016526107 -0.022144327 0.11080261 0.016036613 0.0009396431 -0.035384774
0.07135975 -0.06735854 0.021520305 0.0013085834 -0.019891718 -0.04303448 0.08470859 -0.050787713
-0.089939214 -0.07779496 0.08527037 0.081190646 -0.46856552 -0.105489835 0.007360931 -0.27620763
-0.17792907 -0.1141236 -0.09522019 0.013740751 0.02153572 0.17143968 -0.08171009 -0.104780644
-0.124186516 0.22477633 0.013542774 -0.07419219 0.020071447 -0.11425709 -0.007122241 0.050619774
0.0016908572 -0.09786503 -0.052378513 -0.3363354 -0.14335181 0.05846249 -0.094423845 -0.09156467
0.07003048 0.029152742 -0.014759181 -0.06462933 0.14248066 0.08236652 0.093719594 -0.27273753
-0.10989791 0.09599395 -0.137793 -0.24218988 -0.07295835 -0.16004749 -0.049624182 -0.13927563
0.166365 -0.20680918 0.038077343 -0.19212133 0.06696708 -0.0046032798 0.044740014 0.06326369
-0.08559012 0.059715908 0.19690996 -0.20219062 -0.1790126 -0.033251293 -0.029072309 -0.05100269
0.054321896 0.0021772354 -0.04700572 0.017430201 -0.021287257 0.033952553 -0.16303796 -0.027290035
0.04988467 0.057783164 0.005192018 0.024268508 0.049332194 -0.008391245 0.10230859 0.0043332223
0.1398754 -0.038891517 -0.08391378 -0.25984177 0.0012346143 0.041320603 -0.0739037 -0.04670941
-0.22350289 0.053001158 0.016341407 -0.010023918 -0.004361309 -0.23999095 -0.046287168 0.011200616
-0.065250345 0.08549894 -0.06042396 0.06431476 0.138007 -0.007338156 0.05899072 -0.14114238
0.08071778 -0.17461012 -0.018972239 -0.04229088 -0.05393668 -0.07804282 0.24211901 -0.11912196
-0.19933228 -0.11418673 -0.12497567 -0.21728773 -0.09767946 0.17646948 -0.12461118 -0.17296858
0.06613228 0.0103188185 -0.078221224 0.08457137 -0.10064386 -0.03366459 0.026581166 -0.00019183227
-0.14967206 -0.13771163 0.02625381 -0.08192683 -0.033203606 0.026149208 -0.112916134 0.029677931
-0.075789705 -0.05689604 0.062722854 -0.039091807 -0.037983157 -0.305155 0.053513292 -0.04565647
0.013837395 -0.09616925 0.032542527 -0.034051433 0.050736587 0.17961016 -0.15332752 -0.048638508
0.054324273 0.018104795 -0.110740736 0.08867218 0.002694417 0.0059060934 -0.09176082 -0.08540167
-0.18421054 0.023750264 0.1593366 -0.22569032 0.026888063 0.037843097 0.08358503 -0.058519218
0.062377848 0.012124218 0.07704594 -0.15096106 0.06357606 -0.17409752 0.089599185 -0.5488369
0.10958171 -0.039221864 0.027529031 0.046326842 -0.83108675 -0.057869233 -0.029168725 -0.11346414
0.18638273 -0.046209075 -0.059577614 0.13106097 -0.006730041 -0.0819827 0.012823788 0.051659584
0.055924937 -0.03777791 -0.045401383 -0.0024761667 0.05183269 -0.10230353 0.15144813 -0.009384271

bias f4 [300]
00000000: 4a48 403a 297f 983c 6b1e fdbd f58c c43c
00000010: aa28 0bbd 3795 a53d e0a5 b63a 7fe1 d7bc
00000020: 298f fbbd 1be1 093d 0307 493c b4db a4bd
00000030: caa9 653d fff1 6dbc 781e 4cbd 21d9 8fbd
00000040: ff47 62bd 35e5 9fbd ad6b 05bd 8e75 2abe
00000050: d026 c7bd 56f8 fcba f2b1 ddbb 2806 c3bd
00000060: 21bb 27bd cdc2 18bd 5142 9b3d ccae 653d
00000070: 7997 afbc 13db 1bbc 253c 89bb 30c4 f4bd
00000080: 5cde e3bd 2d32 3fbd f0b0 edbd 1b78 1fbd
00000090: a0a9 c2bc 029d e93b 772d 6ebc e886 33bd
000000a0: 4306 b73d 075b a4bc d296 96bd 8495 323c
000000b0: d9ae 63bb 2949 6f3c c1fa a6bb c4fd 303d
000000c0: 3d70 babb 20de 43bd ab48 d23c 1aba 033d
000000d0: 419a 4c3d d74a e3bd 64b5 9c3d 2ca2 8e3c
000000e0: 640e 73bd ce80 813d 1bf5 dcbd 22ab 2e3d
000000f0: 81ed b73c ae41 05be db42 d83b 28c4 33bd
00000100: a1f5 1e3c ff64 833d 2d13 f9bb 50ec a53c
00000110: 5144 52bd 9273 733b 0b8c c139 6a7f f5bd
00000120: f884 b6bb d55d 793b 9533 4bbc 53ad 4b3c
00000130: c5b8 e0bd 625e 8dbc e5a5 913c b08a 62bc
00000140: 30d0 8d3c 5271 18bc f5d3 1abd 98ea 91bd
00000150: 7bfd 0a3d e0b6 e8bc 9ac1 ca3d 8be4 72bb
00000160: 5887 883d b772 183d e0c0 853d b6a3 bbbd
00000170: 83b6 46be 0834 283d 4561 72bd aafc 94bd
00000180: 563b 98bd 6dc1 043d 1644 10be 6788 59bc
00000190: 6191 8e3d 1f4b b8bd f0fa 87bd 6d2b 253d
000001a0: 0acf 17bd f23d ed3c 1cdc e13c f6db ac3d
000001b0: b08b 553d c359 ce3c 51e0 57bc c080 963d
000001c0: 7171 073c 5e27 06bc 13c6 ca3d 4d57 863d
000001d0: f314 70ba ae5d 27bd d529 61bd be6a 543c
000001e0: 187b 9fbd b9cc 0dbd 2308 1fbd 51db 82bd
000001f0: d44a 093c 2436 1639 bfce c43c 2cdd cf3c
00000200: 1c61 803c 3220 063c faef 65bd 66b3 bdbe
00000210: d97f c8bc a62d fbbd faf7 233c 03cf 96bb
00000220: c9c8 843d 48a2 cbbd ae71 bbbd 6710 4e3d
00000230: 9344 25bc f05a 5cbd 63b2 bebb 317b ebbd
00000240: 9e96 56bd fc7d 32bd 673e 8b3d cf14 18be
00000250: 32f3 acbe 77a2 b23d edd6 84bd e385 723d
00000260: d094 12be d19e d9bc 39fb 4dbd 28f0 973d
00000270: 6b53 01bd f52d 65bc bbec b4bd d803 90bb
00000280: a12c 063c d9fb 88bc 3495 70bd b356 1ebc
00000290: 41c7 c8bd 5e35 35bb 7fe8 ef3b af9f 8dbe
000002a0: a336 49bd c8ae f5bc 199c e0bd d229 b13c
000002b0: 74d3 d5be 401a b03b 7c78 babd 6aa6 8a3c
000002c0: dd63 bebc c127 75bc 1208 423d 1b15 7fbb
000002d0: ea53 afbc bbf7 17bd 4990 a83c 8641 553c
000002e0: d9a2 a8bc 2a15 b9bc ad2a f1bc c572 d6bd
000002f0: d3e7 143d d2c1 4b3a acbe a3bd d73f 4dbe
00000300: b347 b0bd 176f 903d 5752 a13c 8d73 81bd
00000310: 4a99 0d3d 1bba 343d e79e 4b3d 9a4f 42bc
00000320: a288 e03c 81ce 0bbc 9114 88bd 4d85 c5ba
00000330: 9e71 35bd a675 88bd 2933 afbd ca5b 263c
00000340: 4b09 93bd 9ac2 723d 7150 f5bc 0936 31bd
00000350: 843b 2ebc e0b3 133d 75d7 803d e5e2 33bd
00000360: 2901 d1bc 3be8 70ba 95a0 9e3b 9daa 4d3c
00000370: 5f4b af3c f2c1 683c a6e9 6ebe 5e5e 6a3d
00000380: d4a0 1bbd 76bd 81bd e0ce fdbc 3c8f df3c
00000390: a0b6 87bd d896 a23c 53c3 4bbe b72d db3c
000003a0: 96ce 56bd 2a2b a53d 51d3 44bd 8056 cebc
000003b0: 6ee4 d4bd ff01 0f3c 3e27 73bd c5b8 51bd
000003c0: 7330 91bc b65b 91bd c869 40bd f208 6b3d
000003d0: 5787 183d d51a a8bc 0682 54be 092c c93d
000003e0: eed2 8c3d 94da 1d3d 8ad4 9bbc 4826 76bc
000003f0: 570a fabc ecc7 413d 1e84 b33d 3164 c9bd
0.00073349907 0.018615322 -0.123593174 0.023992995 -0.033974327 0.08085101 0.0013934933 -0.026352642
-0.12283165 0.033661943 0.012269738 -0.080497175 0.056070127 -0.014523028 -0.049833745 -0.07023836
-0.055244442 -0.0780739 -0.03257339 -0.16646406 -0.097242 -0.0019300084 -0.0067655975 -0.095226586
-0.040949944 -0.03729515 0.07581008 0.056074902 -0.021434532 -0.009512681 -0.004188078 -0.11951482
-0.11126396 -0.04667871 -0.11606014 -0.0389329 -0.023762524 0.0071293125 -0.014537207 -0.04382983
0.08936741 -0.020062936 -0.073529854 0.010899905 -0.0034741668 0.014604845 -0.00509581 0.04321076
-0.0056896494 -0.047819257 0.025669416 0.032159902 0.049951795 -0.11098259 0.07651785 0.017411314
-0.059339896 0.06323396 -0.10788938 0.042643674 0.022452118 -0.13013336 0.0065997667 -0.04388824
0.009702117 0.06415748 -0.007601163 0.020254284 -0.051334683 0.0037147743 0.0003691617 -0.11987193
-0.0055700503 0.0038050313 -0.012402435 0.01243146 -0.10972742 -0.01725692 0.0177793 -0.013827011
0.017311186 -0.009304361 -0.037799794 -0.07124823 0.033933144 -0.028407514 0.09900208 -0.0037062492
0.0666644 0.037218776 0.065309286 -0.09162085 -0.1940556 0.041065246 -0.059174795 -0.07274754
-0.074331924 0.032411028 -0.14088473 -0.01327715 0.069613226 -0.08998703 -0.066396594 0.040324617
-0.037062682 0.028960202 0.027570777 0.08440392 0.05213517 0.025189286 -0.01317604 0.07348776
0.008266793 -0.008188097 0.09901061 0.0655962 -0.0009158395 -0.040860824 -0.054971535 0.012964902
-0.0778715 -0.034619067 -0.03882612 -0.063894875 0.008379657 0.00014325284 0.024024365 0.025374018
0.015671305 0.008186387 -0.056137063 -0.37050933 -0.024475025 -0.12264566 0.010007853 -0.0046023144
0.06483609 -0.09943062 -0.09152542 0.05030861 -0.01008715 -0.053797662 -0.005819605 -0.11498106
-0.052389733 -0.04357718 0.06799012 -0.14851688 -0.33779293 0.08722394 -0.06486306 0.059209716
-0.1431458 -0.026564987 -0.050288413 0.07418853 -0.031573694 -0.013988008 -0.08834215 -0.0043949895
0.008189351 -0.016721653 -0.05873604 -0.009664225 -0.0980363 -0.0027650218 0.007321417 -0.2766089
-0.04912437 -0.029990569 -0.10967273 0.021626387 -0.41762888 0.005374223 -0.09105012 0.016925056
-0.023240978 -0.014963091 0.047370978 -0.0038922492 -0.021402318 -0.03710149 0.020576613 0.01301611
-0.020585464 -0.0225931 -0.029439295 -0.10471109 0.036353897 0.0007772717 -0.07995352 -0.20043884
-0.086074255 0.07052439 0.019692583 -0.06320868 0.034570016 0.044122797 0.049712088 -0.011859799
0.027408902 -0.008533121 -0.06644548 -0.0015069634 -0.044297807 -0.06663065 -0.0855468 0.01015372
-0.07179507 0.059267618 -0.029945584 -0.043264423 -0.010634307 0.036060214 0.06291095 -0.043917555
-0.025513249 -0.00091898785 0.00484092 0.012552884 0.021398244 0.014206396 -0.23331317 0.0572189
-0.037995175 -0.06334965 -0.030982435 0.02728998 -0.0662663 0.019847319 -0.19898729 0.026755197
-0.05244311 0.080648735 -0.04805309 -0.02518773 -0.10395132 0.008728503 -0.059363596 -0.0512016
-0.017723298 -0.070975706 -0.04697588 0.057381578 0.037238445 -0.020520607 -0.20752725 0.09822852
0.06876169 0.03853853 -0.019022245 -0.015023775 -0.030522509 0.0473098 0.08765434 -0.09833563

weight f4 [2, 300]
00000000: b712 693d 61a8 b0bc c864 00c0 393a 0ebb
00000010: f8cd 7abc d1b1 10bc 5deb 073d 82cf 1abc
00000020: 9877 f03c 0dc4 c5bd b43e cbbd d0e4 ec3c
00000030: a62c e03d 6024 c3ba b077 71bd 8457 603e
00000040: f34d f2bc 977e 9f3d e58e 493d 142f 563d
00000050: b390 193d 66eb 8eba 0ecc 0cbb 4525 0dbe
00000060: 3da5 4a3a 67d5 2c3d 047d c1bd 42f8 323e
00000070: 6a9e dd3d 7ffc c03e e6c8 abbd 3198 a0bc
00000080: 1c42 c4bc 9747 b43d 67e5 303e af13 683a
00000090: 9a9f 2f3e bc71 9dbb 5724 163f d5f5 70bc
000000a0: 12c4 90bc 9535 4b3d 3f12 0fbf 8678 8a3b
000000b0: af10 97bc c444 943b eee4 f1bc 9b70 54bd
000000c0: ff7d 273d 4dfd 2f3b a12a 923e 15b5 95bc
000000d0: c6e0 513c 0714 42be 6cb5 243e 4122 683d
000000e0: cd41 f53d fd01 b83d e408 863c 8847 9ebb
000000f0: 3b45 8bba bad2 07be cc76 7dbc 0fec 683e
00000100: 1c69 633d 08f0 153e 07f5 0ebe 1a9e e73d
00000110: c747 153e f492 04bd 5460 0b3c d8f2 9a3d
00000120: 549f 903c 8442 67bd 2c2d 9ebd 5dc7 123d
00000130: 7b14 82bc 826b b1bd 8b00 243a 3975 353b
00000140: 8c7b 15bd 8663 943b 5d7a 843d 4d54 4f3d
00000150: db1f 7abb 7a6c d0be 4080 853d 8bea 673e
00000160: d0c7 223d 4cf6 9fbd 2e45 143e 7313 c2be
00000170: 4792 873c b963 f4ba 211f 19bf 8261 a4bb
00000180: 8417 94be 2ef3 303a d8f9 14be 8acc 1c3e
00000190: f489 d83c 8f9b 0ebe 08ec db3c eb76 01bd
000001a0: 0210 0fbd 435d f43d e204 acb9 56e9 5e3d
000001b0: e125 ba3d 1d5b b03d 43e6 8ebd 2359 463e
000001c0: 56d1 53bc 9190 a7bc 9b69 9cbb c494 b23d
000001d0: bf00 563e 043b 88bd eb73 183e 9c7b 07bc
000001e0: ec4c 79bd d0cc e73d a068 f93c bd06 5d3c
000001f0: 21fb c938 583d 293c 5576 3bbe 7a11 8ebd
00000200: f881 353e 7448 253d 8ce0 b6bd 5f18 0c3c
00000210: d243 0e3e e758 fcbd 3b95 b6bc 5965 5e3a
00000220: e700 123c d8d5 ac3e 5d9e 69be 8894 803d
00000230: b98f abba bb65 a4bd 4f85 063d c4f4 04bf
00000240: efe2 e6bb d3f6 87bd a81d 9cbd 55c6 c63d
00000250: d2d3 143d eb3f 56bd 5c0f 09bf 431f 19be
00000260: dc9c 04be 5400 523e 1629 803d 1ec6 02bd
00000270: 6350 443e 1ead 6cbd aaf4 ecbd ceae 873d
00000280: 9bd8 97bc 1494 d03d f0c4 133c fb01 ffbd
00000290: fe3e 193c b479 b03b 54c4 043e 5c85 edbd
000002a0: dec5 47bc ec37 b93c de29 72be 5521 bc3b
000002b0: 6ead 19be 8e64 74bd 16e5 b53d 7b9d 0dbe
000002c0: 3115 38bc 6915 b23d 33b5 d73d f3f5 97bd
000002d0: 2987 133d 2aad 453c ac99 4e3e 989b 843d
000002e0: 2786 71bb b76a 57bd f253 19bd 6a21 003e
000002f0: 6ed6 8ebd 5755 87bd 871e 86bd d42e 733d
00000300: b46d 0cbd 738b 19bc 5e28 6f3d 987a 4abb
00000310: e08a f73d 0099 8f3d aa1a 70bd b9d2 56bc
00000320: fa04 babd dac8 053e 2390 0e3d 6df5 8abb
00000330: 020f bf3b fd9a b8be d9de 9bbe 16dd 9bbb
00000340: 4df6 563e 3204 54bb 1004 293c a9e5 733e
00000350: a011 86bd 3a35 bd3d 5204 4abc 77c7 613e
00000360: cad4 8ebe c3fa 69bd 0964 493b c06e 6c3d
00000370: 90c4 053b 4fc2 113e 5a14 08be e2c4 c53c
00000380: 6476 93bc d8f9 943d 4823 0bbb 2282 0c3c
00000390: 1e43 30bf 5ee6 09be 0e59 62bd 3e2a 1c3d
000003a0: f19d 3b3d 776b 45bc f7cb 80bc 40b0 713d
000003b0: 8a31 00be 08bf 7dba 0de4 cfbc 8f83 9a3d
000003c0: 508b 373b 2b24 fdbd bfae 57b7 496e 543d
000003d0: a010 0bbe 45f3 9e3c 7dd8 33be bd09 1c3c
000003e0: 5f16 653e 26b9 a9bd 0b51 853e 8363 233e
000003f0: a3f0 20bd c4d3 a83b 7cc3 8c3d 8c17 303e
0.056902613 -0.021564664 -2.0061512 -0.0021702184 -0.015307896 -0.008831457 0.033183444 -0.009448888
0.029353902 -0.09656534 -0.09924069 0.0289177 0.10946016 -0.001488816 -0.058952034 0.21908385
-0.029578185 0.07787817 0.04920854 0.05229099 0.03749151 -0.0010903894 -0.002148393 -0.13783748
0.0007730311 0.042195704 -0.09447673 0.17477515 0.10821231 0.3769264 -0.08387928 -0.01960382
-0.023957305 0.08802717 0.1727501 0.0008853031 0.17150727 -0.004804818 0.586492 -0.014707048
-0.017671619 0.049611647 -0.55887216 0.0042257933 -0.018440573 0.004524799 -0.029528107 -0.0518652
0.040891644 0.002685386 0.28548148 -0.018274823 0.012809938 -0.18952952 0.16084832 0.056673292
0.11975441 0.08984754 0.016361661 -0.0048303045 -0.0010625491 -0.1326398 -0.015470218 0.22746299
0.055520162 0.14642346 -0.13960658 0.11309452 0.14578162 -0.032366708 0.008506853 0.0756585
0.017654099 -0.05645992 -0.077234596 0.03583466 -0.015878906 -0.086630836 0.00062561844 0.0027688278
-0.036494777 0.0045284657 0.064686514 0.050617505 -0.003816596 -0.4070776 0.06518602 0.22648065
0.039741337 -0.07810649 0.14479515 -0.37905464 0.016549243 -0.0018645442 -0.59813124 -0.0050165066
-0.2892419 0.0006750104 -0.14548433 0.153124 0.026432969 -0.13926528 0.026845947 -0.03160755
-0.034927376 0.11931851 -0.00032810034 0.054421745 0.09089256 0.086111285 -0.06977513 0.1936994
-0.012928328 -0.020454677 -0.0047733313 0.08719781 0.20898722 -0.06651881 0.14887969 -0.008269217
-0.060864374 0.11318362 0.030445397 0.013490376 9.631203e-05 0.010329567 -0.18306859 -0.06936927
0.1772536 0.0403523 -0.08929548 0.008550732 0.13893059 -0.12321644 -0.022287956 0.000848373
0.008911348 0.337569 -0.22814317 0.0627833 -0.0013089097 -0.08027216 0.032841977 -0.5193598
-0.0070460956 -0.06638875 -0.07622844 0.097057976 0.03633482 -0.05230705 -0.5353906 -0.14953332
-0.12950462 0.20507938 0.062578365 -0.03192722 0.1917129 -0.057782285 -0.115701035 0.06625138
-0.018535903 0.10184494 0.0090191215 -0.124515496 0.009353397 0.005385602 0.12965518 -0.11597702
-0.012193171 0.022609673 -0.23648784 0.005741278 -0.15007564 -0.05966621 0.08881585 -0.13829605
-0.011235521 0.0869549 0.10532608 -0.07419958 0.03601757 0.012065211 0.20175809 0.0647499
-0.0036853643 -0.052592006 -0.037433572 0.12512746 -0.06974493 -0.06608074 -0.065487914 0.05937083
-0.03428431 -0.009371626 0.058388107 -0.0030895825 0.12087035 0.07011604 -0.05861918 -0.013111764
-0.090829805 0.130649 0.03480543 -0.004240683 0.0058306465 -0.36055747 -0.30443457 -0.00475658
0.20992394 -0.0032351133 0.01031591 0.23818077 -0.065463305 0.09238668 -0.012330132 0.22048746
-0.2789672 -0.05712391 0.0030729792 0.057722807 0.002041135 0.14234279 -0.13289014 0.024141733
-0.018000789 0.072742164 -0.0021230746 0.008575948 -0.6885241 -0.13466784 -0.05526071 0.038126223
0.04580492 -0.012049547 -0.015722258 0.059005976 -0.12518898 -0.000967965 -0.025377298 0.07544624
0.002800662 -0.12360414 -1.2855685e-05 0.05186299 -0.1358056 0.01940311 -0.17563052 0.009523806
0.22371815 -0.082872674 0.26038393 0.1595593 -0.03929199 0.0051521976 0.06873223 0.17196482

bias f4 [2]
00000000: 9193 c93d ab8d eb3c
0.09842599 0.028754076
