HW4/actor.pth (torch, 501335 bytes, 6 tensors)

weight f4 [400, 8]
0	0x3e0846f8	0.13308322
1	0xbe01a48c	-0.12660426
2	0xbf0d83d7	-0.55279297
3	0xbe3e8f7f	-0.18609427
4	0xbd862a46	-0.06551032
5	0xbe8ecb0f	-0.27889296
6	0x3e5ce50d	0.21571751
7	0xbee5192c	-0.44745767
8	0xbe92bbb4	-0.2865883
9	0xbeb3d16d	-0.35120717
10	0xbe835079	-0.25647333
11	0xba79a604	-0.00095233344
12	0xbbd9e0d1	-0.0066491147
13	0x3da17d58	0.078852355
14	0xbee693c7	-0.4503462
15	0xbe65bb1c	-0.22434658
16	0x3c87ff6f	0.016601292
17	0x3cedfb53	0.029050505
18	0x3ebfb32f	0.37441394
19	0x3e1a484c	0.15066642
20	0x3e115057	0.14190803
21	0xbdacef1d	-0.08444045
22	0xbecdf91c	-0.40229118
23	0xbe80b234	-0.25135958
24	0xbce73743	-0.028224593
25	0xbee77e72	-0.45213658
26	0x3ed27582	0.41105276
27	0x3ed95c86	0.42453402
28	0x3ea2148b	0.31656298
29	0x3ed05187	0.406872
30	0x3e53077f	0.20608328
31	0xb9f40978	-0.0004654636
32	0x3d9e5240	0.07730532
33	0xbda77a59	-0.08177633
34	0x3f240f0e	0.6408547
35	0x3f182440	0.59430313
36	0xbddab1a6	-0.10678415
37	0x3f00e1a9	0.5034433
38	0xbe483fd8	-0.19555604
39	0xbee3fefe	-0.4453048
40	0xbea4cac8	-0.3218596
41	0x3d164c6c	0.036693975
42	0x3f0e8216	0.55667245
43	0x3f0067a6	0.50158155
44	0xbe3c335e	-0.1837897
45	0x3ec5baac	0.38618982
46	0xbf2f9a1d	-0.68594533
47	0x3e16cd44	0.1472674
48	0xbeb77519	-0.35831526
49	0xbe72d554	-0.2371419
50	0xbe1dd0ba	-0.15411654
51	0xbea73036	-0.3265397
52	0xbdd37552	-0.103251114
53	0x3eed624e	0.46364063
54	0xbee37229	-0.44423035
55	0x3ee337bf	0.44378468
56	0xbf11876e	-0.56847274
57	0xbea1a027	-0.315675
58	0x3de138ec	0.10997185
59	0x3e5cb27b	0.2155246
60	0xbe1b7a20	-0.15183306
61	0xbe391db0	-0.18077731
62	0x3ecbc804	0.39801037
63	0x3e882a2f	0.26594684
64	0x3d2333c6	0.039844297
65	0xbd14a2e0	-0.036288142
66	0xbe613631	-0.21993329
67	0xbf170c86	-0.59003484
68	0xbdc69715	-0.09696785
69	0xbf150ca3	-0.5822241
70	0xbd4b44be	-0.049626105
71	0x3e9a684d	0.301577
72	0xbe011d69	-0.12608875
73	0xbe43a44e	-0.19105646
74	0xbf0c740e	-0.54864585
75	0xbc9186e6	-0.01776452
76	0xbd0bd0bc	-0.03413461
77	0x3e716963	0.23575358
78	0x3de3dd98	0.1112625
79	0xbde9953e	-0.11405419
80	0x3db98b77	0.09059804
81	0xbea09c9f	-0.31369492
82	0x3e7be471	0.24598862
83	0x3f1dd332	0.61650383
84	0x3cf8bfd3	0.030364906
85	0x3efc0782	0.49224478
86	0x3bbe8f00	0.005815387
87	0x3e175c53	0.14781313
88	0xbecd4a49	-0.40095738
89	0xbe3628fa	-0.17789069
90	0xbf4a992c	-0.7913997
91	0xbf2433dc	-0.6414163
92	0xbe11333e	-0.14179704
93	0xbe6273e3	-0.2211452
94	0x3ea075bc	0.31339824
95	0x3c38b46e	0.011273487
96	0x3e2f8cb9	0.17143525
97	0xbdab410e	-0.083620176
98	0x3e397d03	0.18114094
99	0xbdabdb4c	-0.08391437
100	0x3e2caac5	0.16862018
101	0xbe4b360f	-0.1984484
102	0xbee5e380	-0.4490013
103	0x3ded246c	0.115792125
104	0xbd9200e2	-0.07129075
105	0x3ed799a2	0.421094
106	0x3f39b5e1	0.7254315
107	0xbeac65f6	-0.3367154
108	0xbdaceb52	-0.08443321
109	0xbf35da92	-0.71036637
110	0xbed3ecf0	-0.41391706
111	0xbebead87	-0.37241766
112	0xbdf81819	-0.12113971
113	0xbe704da8	-0.23467124
114	0x3e683547	0.22676574
115	0xbebe00a1	-0.37109855
116	0xbe852767	-0.26006624
117	0xbf2c66f4	-0.67344594
118	0xbeedd7a0	-0.4645357
119	0xbd5158f5	-0.051110227
120	0xbecdb12d	-0.40174237
121	0xbe8865d2	-0.26640183
122	0x3e873b5b	0.26412472
123	0xbf2cef7e	-0.67552936
124	0x3dfadc80	0.12249088
125	0x3e59a825	0.21255548
126	0x3ea25f98	0.31713557
127	0x3d5fd6c6	0.054648183
128	0x3e4a3f62	0.19750741
129	0x3e13294f	0.14371227
130	0x3f11b9d4	0.56924176
131	0x3f2f7df3	0.6855156
132	0x3e0cef47	0.13763152
133	0xbd81f6fa	-0.06345935
134	0xbed869b9	-0.4226816
135	0xbe3906b8	-0.18068969
136	0x3e269e0b	0.16271226
137	0xbefe8afa	-0.49715406
138	0xbe8128e0	-0.25226498
139	0xbd7ea410	-0.06216818
140	0x3e5aaaf6	0.21354279
141	0xbd915d4a	-0.070978716
142	0xbecc4b12	-0.39901024
143	0x3ec70c6d	0.38876668
144	0xbebb2fe3	-0.36559972
145	0xbdc80a40	-0.0976758
146	0x3fcf005a	1.6171982
147	0xbebba886	-0.3665201
148	0x3e111621	0.14168598
149	0xbecd8040	-0.4013691
150	0x3df58331	0.119879134
151	0xbe72bc8f	-0.23704742
152	0xbea5a41f	-0.32351777
153	0xbec3e70c	-0.38262212
154	0x3deb544e	0.11490689
155	0xbd0775c3	-0.03307129
156	0x3d2999e2	0.04140652
157	0x3e25404f	0.16137813
158	0xbefcff33	-0.49413452
159	0xbe0392ec	-0.12849015
160	0xbeb0f25a	-0.345599
161	0xbe5f695b	-0.21817534
162	0x3e8a513e	0.27015108
163	0x3cda2d80	0.026633024
164	0xbd9d454b	-0.07679232
165	0x3f1d4b5e	0.61443126
166	0x3eae95fd	0.34098807
167	0x3cf38952	0.029728565
168	0xbd5029a9	-0.05082098
169	0xbebf5231	-0.37367395
170	0xbeed8a1a	-0.46394426
171	0xbf4646b9	-0.77451664
172	0xbdaa05df	-0.08301901
173	0xbea35b13	-0.31905422
174	0xbae96e8c	-0.0017809435
175	0x3e38f45a	0.18061963
176	0x3dd74f05	0.10513119
177	0xbc0ad2d0	-0.008473113
178	0x3d85129d	0.06497691
179	0x3f18a193	0.5962154
180	0x3e28805d	0.16455217
181	0x3ebc113a	0.36731893
182	0xbe6972b2	-0.22797659
183	0x3c6c7892	0.014433043
184	0x3e1a5682	0.15072063
185	0xbe608c0a	-0.2192842
186	0x3e60e968	0.21964037
187	0xbf09f39a	-0.5388733
188	0x3cc8a31b	0.024491837
189	0xbf00e1cc	-0.5034454
190	0x3e77d46a	0.24202123
191	0x3b8cb579	0.004294094
192	0x3de90d1d	0.11379454
193	0xbe20d12d	-0.15704794
194	0x3dcf0e47	0.10110145
195	0x3e0e080a	0.13870254
196	0x3e54de18	0.20787847
197	0xbdf71287	-0.12064081
198	0x3e181f3f	0.1485567
199	0xbed8482c	-0.42242563
200	0x3d046623	0.032323968
201	0x3ece388d	0.4027752
202	0x3efd8d1e	0.49521726
203	0xbeeae2b4	-0.45876086
204	0x3de64015	0.112426914
205	0xbed8a63d	-0.4231433
206	0xbabec8d4	-0.0014555701
207	0xbd7f8e8c	-0.062391803
208	0xbdaad786	-0.08341889
209	0xbdcabc1b	-0.098991595
210	0x3fb99f5f	1.4501761
211	0xbd7bbab5	-0.061457355
212	0xbe6279a5	-0.22116716
213	0xbeb00b63	-0.34383687
214	0xbc7ea0df	-0.015541284
215	0xbe57a61a	-0.21059456
216	0xbe051b82	-0.12998775
217	0xbe715532	-0.23567656
218	0xbeb10c3f	-0.34579656
219	0xbe949046	-0.29016322
220	0xbdb8ce02	-0.09023668
221	0xbc4a6d5f	-0.012355178
222	0xbda7d28d	-0.08194456
223	0x3e0522ee	0.13001606
224	0xbeba5ed4	-0.36400473
225	0x3ceb81b1	0.028748365
226	0x3e634367	0.2219368
227	0x3e6d2795	0.2315963
228	0xbcd7b036	-0.026329141
229	0x3e45c746	0.19314298
230	0xbf0717e8	-0.52770853
231	0x3dd1b381	0.10239316
232	0xbd425c40	-0.047451258
233	0x3dfabcc6	0.12243037
234	0xbe3d20f7	-0.18469606
235	0x3eec0958	0.4610088
236	0x3e4446a7	0.19167577
237	0xbdc2db55	-0.095144905
238	0xbddd7721	-0.10813738
239	0xba0ea4a3	-0.0005441403
240	0xbd9f1eb4	-0.07769528
241	0x3c6a9b0d	0.014319194
242	0xbdbde2c4	-0.09271768
243	0xbdb069e4	-0.08613947
244	0x3d79b587	0.060964134
245	0xbf2aa739	-0.6666141
246	0x3ecbb31b	0.39785084
247	0xbe96474f	-0.2935128
248	0xbe26dfa6	-0.16296253
249	0xbf226ca8	-0.63447046
250	0x3d66febd	0.05639528
251	0x3e8ec884	0.27887356
252	0x3e4ddd0f	0.20103858
253	0x3e928d73	0.28623542
254	0x3e9d13ba	0.30679113
255	0xbed17cb4	-0.40915453

bias f4 [400]
0	0xbd8579c0	-0.065173626
1	0xbe8d2f55	-0.27575174
2	0x3d024888	0.031807452
3	0xbeeebc91	-0.4662824
4	0xbe5f61f0	-0.21814704
5	0xbe511d5c	-0.20421356
6	0xbe03aad0	-0.12858129
7	0xbf44d76a	-0.76891196
8	0xbb5f1896	-0.0034041754
9	0x3d8417c4	0.064498454
10	0x3dae7715	0.08518807
11	0x3e4b8aff	0.19877242
12	0xbe974d6d	-0.2955126
13	0xbd35aa4f	-0.044351872
14	0xbe44902f	-0.19195627
15	0xbca4443d	-0.02005207
16	0x3da707a6	0.08155756
17	0xbddd7574	-0.10813418
18	0x3e414d6c	0.1887719
19	0x3d27bb22	0.040949948
20	0xbe5c4322	-0.21509984
21	0x3e312f3e	0.17303178
22	0x3c698710	0.014253393
23	0xbc1c2178	-0.009529464
24	0xbea24a00	-0.31697083
25	0xbe2628ba	-0.16226473
26	0x3dc0e889	0.094193526
27	0x3e007872	0.12545946
28	0x3df30bf7	0.118675165
29	0xbc945996	-0.018109124
30	0xbd1f094f	-0.038827237
31	0xbe9ab502	-0.30216223
32	0x3cec0954	0.028813042
33	0xbe322ce5	-0.17399938
34	0x3e757e43	0.23973946
35	0xbe034276	-0.12818322
36	0xbda4f046	-0.08053641
37	0x3e306401	0.17225648
38	0x3d0cddf0	0.034391344
39	0xbdbb94e7	-0.0915926
40	0x3c20993a	0.009802157
41	0xbe911860	-0.2833891
42	0x3dd44c09	0.10366065
43	0x3e2e550b	0.17024629
44	0xbd8d61f9	-0.069034524
45	0xbf531b08	-0.8246312
46	0xbeab8f9b	-0.33508
47	0x3e350e44	0.17681223
48	0xbd89f155	-0.067354836
49	0xbd00c7de	-0.03144061
50	0x3a8ee85a	0.0010902986
51	0xbd09a262	-0.033602126
52	0xbecbe820	-0.39825535
53	0xbea3c4eb	-0.31986174
54	0xbd0a760f	-0.033803996
55	0x3d34b85f	0.044121142
56	0xbdd3ec5b	-0.103478156
57	0xbf0e25c0	-0.5552635
58	0xbe57f4ec	-0.21089524
59	0xbe5e4716	-0.21706805
60	0x3dcd8304	0.10034755
61	0xbd1cd553	-0.03828938
62	0xbedf483e	-0.43609804
63	0xbd4047c0	-0.046943426
64	0x3d828016	0.06372087
65	0xbbde6dd5	-0.0067879953
66	0xbebbf4cd	-0.36710206
67	0xbecd091f	-0.4004602
68	0xbed6f073	-0.41980323
69	0xbcab1b3a	-0.020887006
70	0xbe5dbf60	-0.21655035
71	0x3c016a55	0.007898887
72	0xbde0c844	-0.10975698
73	0xbe9fed21	-0.31235602
74	0xbe913eaf	-0.28368136
75	0xbec28f64	-0.38000023
76	0xbe8746f1	-0.26421311
77	0x3d9063ad	0.07050262
78	0xbea1599b	-0.31513676
79	0xbded2e63	-0.11581113
80	0xbdda1263	-0.10648038
81	0x3e3f3d61	0.18675758
82	0xbdc4d05f	-0.09610056
83	0x3e68ec0f	0.22746299
84	0xbe646f62	-0.22308114
85	0xbe76b1c0	-0.24091244
86	0xbda0aa4b	-0.07844981
87	0xbe8a4683	-0.2700692
88	0x3ce53f2f	0.02798423
89	0xbe82deec	-0.255607
90	0x3dcf56a9	0.10123951
91	0x3e344cb4	0.17607385
92	0x3da687c9	0.08131368
93	0xbd0d600b	-0.03451542
94	0x3d5e954f	0.05434161
95	0x3dca54ed	0.098794796
96	0xbe62aa30	-0.22135234
97	0xbdcd3293	-0.10019412
98	0xbeb65343	-0.356104
99	0x3ddcad86	0.107752845
100	0xbe021cec	-0.12706345
101	0xbd333bf2	-0.04375834
102	0xbe28f265	-0.16498716
103	0xbe24efc5	-0.1610709
104	0xbd754549	-0.05988053
105	0x3da7b5c8	0.08188969
106	0xbd8263c7	-0.06366687
107	0x3de63471	0.11240471
108	0x3e596ab3	0.21232109
109	0x3e632ba3	0.22184615
110	0xbe529fad	-0.20568724
111	0x3e747aa4	0.23874909
112	0xbc5b3d07	-0.013381249
113	0x3e41f81f	0.18942307
114	0xbbb230ae	-0.005437932
115	0xbea2a1ff	-0.31764218
116	0xbe8927a2	-0.2678805
117	0xbd37f2ca	-0.044909276
118	0x3d866e72	0.065640345
119	0xbf4033e2	-0.75079167
120	0x3e024e83	0.12725262
121	0xbeb0e7b0	-0.34551764
122	0xbd9f9eba	-0.077939466
123	0x3e1cc973	0.15311222
124	0x3da5d39b	0.08097001
125	0xbd866fe4	-0.0656431
126	0xbd30af35	-0.04313584
127	0xbee7c81b	-0.45269856
128	0xbe94a655	-0.2903315
129	0xbe8cc0a1	-0.27490714
130	0x3d1eb28a	0.038744487
131	0x3e840e8b	0.25792345
132	0x3da381f6	0.079837725
133	0xbf068d3f	-0.52559274
134	0xbed93e6a	-0.4243043
135	0xbe2c092e	-0.16800377
136	0x3caa63c9	0.020799534
137	0xbdafc976	-0.085833475
138	0xbae4b88b	-0.0017450018
139	0xbe93dd28	-0.28879666
140	0x3dfa4433	0.12220039
141	0xbe849bcc	-0.25900114
142	0xba88cb1e	-0.001043651
143	0xbf3088ef	-0.68958944
144	0xbeba59b1	-0.36396554
145	0xbe30c6ec	-0.17263383
146	0xbbf4ed65	-0.0074745887
147	0x3e146c2f	0.14494394
148	0xbee4b1b3	-0.44666824
149	0x3dfbffb9	0.123046346
150	0x3bf8d4b2	0.0075937146
151	0x3e2db044	0.16961771
152	0xbddad02d	-0.10684238
153	0x3e13f299	0.14448012
154	0x3b380d9d	0.0028084286
155	0x3de9a80a	0.11409004
156	0xbe461344	-0.19343287
157	0xbd28cb00	-0.04120922
158	0xbdccd421	-0.10001398
159	0x3d4ead21	0.050458077
160	0xbe080c4e	-0.13285944
161	0xbe9313c1	-0.2872601
162	0xbf15b281	-0.584755
163	0xbefa92f7	-0.4894025
164	0xbd51aadc	-0.051188335
165	0x3dcd7e8b	0.10033902
166	0x3d189020	0.037246823
167	0xbdba509f	-0.090974085
168	0xbdbd13a8	-0.09232265
169	0xbe176824	-0.1478582
170	0x3d906fa4	0.07052544
171	0xbeb23068	-0.34802556
172	0x3e0fc74a	0.14040866
173	0xbdf6f071	-0.12057579
174	0xbdd18a48	-0.10231453
175	0xbd6bae32	-0.057539172
176	0x357ba416	9.3743563e-07
177	0x3e12d897	0.14340435
178	0xbe824fb3	-0.2545143
179	0xbe47d1a4	-0.19513565
180	0xbda40320	-0.080084085
181	0x3e1c8d28	0.15288222
182	0x3de77b68	0.11302835
183	0xbd2571a0	-0.040391564
184	0xbd1965c3	-0.037450563
185	0xbc64df27	-0.013969219
186	0x3dd26f62	0.10275151
187	0xbe5689d7	-0.20951019
188	0x3dc2df93	0.095153
189	0x3e3a7e0c	0.18212146
190	0xbdcbf249	-0.099583216
191	0xbe497090	-0.19671845
192	0xbebfd002	-0.37463385
193	0x3d2a9e90	0.041655123
194	0x3dafc4b0	0.08582437
195	0xbe23a68d	-0.15981503
196	0x3d6f789e	0.05846464
197	0x3cbe0f98	0.023200795
198	0x3db2bb12	0.08727087
199	0x3ddd3697	0.10801428
200	0x3d53bf61	0.051696185
201	0xbe922b6f	-0.28548762
202	0xbeb02def	-0.34410045
203	0xbe95848a	-0.29202682
204	0x3c83c261	0.016083898
205	0x3e135f1a	0.14391747
206	0xbe6900c3	-0.22754197
207	0x3c38a865	0.011270617
208	0xbba66438	-0.005077865
209	0xbdf5c8c4	-0.12001184
210	0x3e30e071	0.17273118
211	0x3bec7a94	0.007216761
212	0xbcb65c2d	-0.02226075
213	0x3e92a148	0.28638673
214	0xbd2129f8	-0.039346665
215	0x3d02bc20	0.03191769
216	0x3e16b75d	0.14718385
217	0xbeac5f45	-0.33666435
218	0xbed72040	-0.42016792
219	0x3d8b5aa7	0.068044
220	0xbee06c18	-0.4383247
221	0xbe73a647	-0.23793899
222	0x3d6a6904	0.057229057
223	0xbf0cdf36	-0.5502809
224	0x3e1398e7	0.14413796
225	0xbd891b25	-0.066946305
226	0xbe0efab5	-0.13962825
227	0x3e3b866d	0.18312998
228	0xbdcdcb8a	-0.100485876
229	0xbb75b4af	-0.003749173
230	0xbe45e4bb	-0.19325535
231	0x3e2eecbb	0.17082493
232	0xbd7f6e10	-0.062360823
233	0xbd111211	-0.03541762
234	0x3ac34400	0.0014897585
235	0x3d9ed826	0.07756071
236	0x3e40f490	0.18843293
237	0xbe45414b	-0.19263189
238	0xbe93060b	-0.28715548
239	0xbf02913b	-0.51002854
240	0x3e2b5c06	0.16734323
241	0x3e70aad6	0.23502669
242	0xbd26907d	-0.04066514
243	0xbeada382	-0.3391381
244	0xbda8c0ed	-0.08239923
245	0x3e57147f	0.21003912
246	0xbd481352	-0.04884655
247	0xbde1ae10	-0.11019528
248	0xbe8202f9	-0.25392893
249	0x3e62fc81	0.22166635
250	0xbee019f9	-0.43769816
251	0xbeb84ffa	-0.35998517
252	0xbdb9fddc	-0.09081623
253	0xbdc4e4c3	-0.09613945
254	0x3da99d82	0.08281995
255	0x3dfc03c8	0.12305409

weight f4 [300, 400]
0	0x3d73e111	0.059540812
1	0xbd263055	-0.040573437
2	0xbd40cf3d	-0.047072638
3	0xbd657327	-0.05601802
4	0xbd90ba54	-0.07066789
5	0xbcadd405	-0.021219263
6	0xbd4fe9eb	-0.05076019
7	0xbd701828	-0.058616787
8	0x3cd89041	0.026435973
9	0xbddf043c	-0.108894795
10	0xbe2f8d36	-0.17143711
11	0x3d7e2def	0.062055524
12	0x3d6c248a	0.057652034
13	0x3dd1cf24	0.10244587
14	0xbcad6462	-0.02116603
15	0xb9a6096d	-0.0003166901
16	0xbbea6ee3	-0.007154332
17	0xb8b58ab2	-8.6565866e-05
18	0xbdd38dcf	-0.10329782
19	0xbd989bd9	-0.074516006
20	0x3da3effc	0.08004758
21	0x3732bad4	1.0653126e-05
22	0xbe12bce7	-0.14329873
23	0x3daee97e	0.08540629
24	0x3d0fa2c6	0.035067342
25	0x3d7e1ecb	0.062041085
26	0xbd91d0e9	-0.071199246
27	0xbe01692e	-0.12637779
28	0xbe31d027	-0.1736456
29	0x3b473e36	0.003040207
30	0x3daaa9a5	0.083331384
31	0xbcc192c6	-0.023629557
32	0x3d1e82f3	0.0386991
33	0xbe031b7e	-0.12803456
34	0xbd973e85	-0.073849715
35	0x3d91a9f6	0.071124956
36	0xbe31f23a	-0.17377558
37	0xbe2a8701	-0.16653062
38	0x3d73a37e	0.05948209
39	0xbd6d124a	-0.05787877
40	0xbdd39b07	-0.103323035
41	0x3e2b3784	0.16720396
42	0x3c863ddb	0.016386917
43	0xbd060232	-0.032716937
44	0x3df1b058	0.11801213
45	0x3c835f37	0.016036613
46	0x3a765262	0.0009396431
47	0xbcc69820	-0.02424246
48	0x3d7b7e0d	0.06139951
49	0xbd830d32	-0.06399001
50	0x3c4e8e79	0.01260721
51	0xbbb8151b	-0.0056177503
52	0xbca2f3f5	-0.019891718
53	0xbd3044ec	-0.04303448
54	0x3da9eac4	0.08296731
55	0xbd5006c7	-0.050787713
56	0xbdb8320d	-0.089939214
57	0xbd9f52f7	-0.07779496
58	0x3d9da75b	0.07697936
59	0x3da64748	0.081190646
60	0xbede16f1	-0.43376878
61	0xbdae57ba	-0.08512826
62	0x3bf133f7	0.007360931
63	0xbe8b782f	-0.2724013
64	0xbe36330a	-0.17792907
65	0xbde9b9a2	-0.1141236
66	0xbdc302ce	-0.09522019
67	0x3c6120e3	0.013740751
68	0x3cb06bae	0.02153572
69	0x3e2c0474	0.16798574
70	0xbda7579f	-0.08171009
71	0xbdb342b1	-0.08752955
72	0xbde83bb8	-0.113395154
73	0x3e6819ad	0.22666045
74	0x3c5de283	0.013542774
75	0xbd97f213	-0.07419219
76	0x3ca46ce0	0.020071447
77	0xbdef982d	-0.11698947
78	0xbbe961b0	-0.007122241
79	0x3d4b78a4	0.0496756
80	0x3c4d61b2	0.012535499
81	0xbdc0d90b	-0.09416398
82	0xbcfac03b	-0.03060924
83	0xbe8da74e	-0.27666706
84	0xbe037c67	-0.12840424
85	0x3d398128	0.04528919
86	0xbd996bd5	-0.074912705
87	0xbdbb8642	-0.09156467
88	0x3d93fbc5	0.072257556
89	0x3ceed1bb	0.029152742
90	0x38c59283	9.420982e-05
91	0xbd5f9ac7	-0.054590967
92	0x3e0fea25	0.14054163
93	0x3da7e6ab	0.08198293
94	0x3de19b11	0.11015905
95	0xbe7f50ac	-0.24933118
96	0xbdb6cfb6	-0.089263365
97	0x3dce1311	0.100622304
98	0xbe0d199c	-0.137793
99	0xbe6d106d	-0.23150797
100	0xbdaf1863	-0.08549573
101	0xbe4e32b7	-0.20136534
102	0xbd46bbdc	-0.048519
103	0xbe28f318	-0.16498983
104	0x3e2a5b96	0.166365
105	0xbe3147c6	-0.17312536
106	0x3d2ae083	0.041718017
107	0xbe3ceb3f	-0.18449114
108	0x3d962ebe	0.07333134
109	0xbb6d635e	-0.0036222558
110	0x3d37414e	0.044740014
111	0x3d775946	0.060387872
112	0xbd676030	-0.056488216
113	0x3cd70a07	0.026249899
114	0x3e4d6259	0.20057048
115	0xbe4f0b0f	-0.20219062
116	0xbe374f14	-0.1790126
117	0xbd083282	-0.033251293
118	0xbc2648af	-0.010149165
119	0xbd50e832	-0.05100269
120	0x3d81ef55	0.06344477
121	0x3b0eaff3	0.0021772354
122	0xbc57ae94	-0.013164181
123	0x3d01bafd	0.031672467
124	0xbcad686d	-0.021167958
125	0x3d0b71b2	0.034043975
126	0xbe19c193	-0.15015249
127	0xbcdf8f5a	-0.027290035
128	0x3d4c53de	0.04988467
129	0x3d6cae0a	0.057783164
130	0x3baa21ce	0.005192018
131	0xbbfacc2b	-0.0076537332
132	0xb969652c	-0.00022258301
133	0xbc097b6f	-0.008391245
134	0x3dd1872b	0.10230859
135	0x3b8dfdb4	0.0043332223
136	0x3e1030a8	0.14081061
137	0xbcb75da7	-0.022383524
138	0xbd887bbd	-0.06664226
139	0xbe8509fb	-0.25984177
140	0xbba9de64	-0.0051839817
141	0x3d293fcb	0.041320603
142	0xbd986640	-0.07441378
143	0xbd3f525e	-0.04670941
144	0xbe64ddf1	-0.22350289
145	0x3d560e1e	0.052259557
146	0x3c78c79f	0.015184312
147	0x3bb68cd5	0.0055709877
148	0xbb8ee950	-0.004361309
149	0xbe5f8b0f	-0.2183039
150	0xbd9bda3e	-0.07609986
151	0x3c272f6a	0.0102041755
152	0xbd2772e4	-0.040881053
153	0x3db80c20	0.08986688
154	0xbd777f1d	-0.06042396
155	0x3d79af84	0.0609584
156	0x3e0d51b5	0.138007
157	0xbbcbe08c	-0.0062218364
158	0x3d71a041	0.05899072
159	0xbe1f7289	-0.15571035
160	0x3dacdef3	0.08440962
161	0xbe32ccff	-0.17461012
162	0xbc9b6bab	-0.018972239
163	0xbd2d3934	-0.04229088
164	0xbd54aa1f	-0.051920053
165	0xbda0e0a2	-0.07855345
166	0x3e77012e	0.24121544
167	0xbdce4183	-0.10071089
168	0xbe4c1dc3	-0.19933228
169	0xbde9dabb	-0.11418673
170	0xbdfff33e	-0.12497567
171	0xbe5e80ad	-0.21728773
172	0xbdbfb9c3	-0.09361603
173	0x3e3bffd7	0.18359314
174	0xbdff3425	-0.12461118
175	0xbe14d329	-0.14533676
176	0x3d91432a	0.07092889
177	0x3c18f9c6	0.009336894
178	0xbda03273	-0.078221224
179	0x3dad33c1	0.08457137
180	0xbdbcc0f0	-0.092164874
181	0xbd020d2b	-0.03175084
182	0x3ce5cc52	0.02805153
183	0xb9492695	-0.00019183227
184	0xbdeb3605	-0.11484913
185	0xbe03e46c	-0.12880105
186	0x3c890712	0.016727004
187	0xbda7c941	-0.08192683
188	0xbbe61162	-0.007021115
189	0x3d01d83d	0.03170036
190	0xbddb1daf	-0.10699021
191	0x3cf31f22	0.029677931
192	0xbd9b37a2	-0.075789705
193	0xbd690bd2	-0.05689604
194	0x3d6ed62f	0.05830973
195	0xbd201ebb	-0.039091807
196	0xbd0af9f0	-0.033929765
197	0xbe83b375	-0.25722852
198	0x3cf42e5f	0.029807268
199	0xbd3b0247	-0.04565647
200	0x3c8ca6c3	0.017169362
201	0xbdc4f462	-0.09616925
202	0x3d054b50	0.032542527
203	0xbd0b7984	-0.034051433
204	0x3d4706ae	0.048590355
205	0x3e2e9866	0.17050323
206	0xbe1d01e4	-0.15332752
207	0xbc7c895b	-0.0154136075
208	0x3d5b7714	0.05358036
209	0xbccf852b	-0.025332054
210	0xbdbff9e1	-0.093738325
211	0x3dade0b2	0.08490123
212	0x3c34fc59	0.0110464925
213	0x3b6cebe8	0.0036151353
214	0xbdf3f55e	-0.119120345
215	0xbdaee712	-0.08540167
216	0xbe387e0e	-0.18016836
217	0x3cc28fea	0.023750264
218	0x3e232922	0.1593366
219	0xbe5c3520	-0.2150464
220	0x3cdc445b	0.026888063
221	0x3d1eaf33	0.0387413
222	0x3dc55b5a	0.096365646
223	0xbd6fb1d9	-0.058519218
224	0x3d5e00e0	0.054200053
225	0x3ba8267e	0.0051315418
226	0x3dc09ea7	0.094052605
227	0xbe0c58c1	-0.13705732
228	0x3d1d44ff	0.038395878
229	0xbe32469f	-0.17409752
230	0x3db77fc7	0.089599185
231	0xbf024a88	-0.50894976
232	0x3de7e73d	0.11323402
233	0xbcac6347	-0.021043433
234	0x3cf75b47	0.030194892
235	0x3d2eddc2	0.042691953
236	0xbf54c21a	-0.83108675
237	0xbd44afb6	-0.048019134
238	0xbceef340	-0.029168725
239	0xbde85fe3	-0.11346414
240	0x3e5416de	0.20711848
241	0xbd445c19	-0.047939394
242	0xbd28c74c	-0.04120569
243	0x3e0634d9	0.13106097
244	0xbbdc87ad	-0.006730041
245	0xbd9a4377	-0.07532399
246	0x3cfcf9ca	0.030880827
247	0x3d26f59c	0.040761575
248	0x3d65118c	0.055924937
249	0xbc8a0b98	-0.016851231
250	0xbd39f6cd	-0.045401383
251	0xbb22472f	-0.0024761667
252	0x3d544e84	0.05183269
253	0xbdd18483	-0.10230353
254	0x3e199b77	0.15000711
255	0xbc7aeba9	-0.015314975

bias f4 [300]
0	0xbb00b036	-0.001963628
1	0x3cc67535	0.02422581
2	0xbddd42ec	-0.1080378
3	0x3cc48cf5	0.023992995
4	0xbcc5100b	-0.024055501
5	0x3d80282d	0.06257663
6	0x3bc9fbd5	0.006164054
7	0xbca6ccd7	-0.020361347
8	0xbdfb8f29	-0.12283165
9	0x3d1cf119	0.038315866
10	0x3c56a0a4	0.013099823
11	0xbda4dbb4	-0.080497175
12	0x3d65a9ca	0.056070127
13	0xbcd50624	-0.026003905
14	0xbd4c1e78	-0.049833745
15	0xbd8fd921	-0.07023836
16	0xbd5aaa2b	-0.05338494
17	0xbd9fe535	-0.0780739
18	0xbd056bad	-0.03257339
19	0xbe2a758e	-0.16646406
20	0xbdc0bade	-0.09410642
21	0xbafcf856	-0.0019300084
22	0xbbddb1f2	-0.0067655975
23	0xbdb00b0b	-0.08595856
24	0xbd27bb21	-0.040949944
25	0xbd117133	-0.035508346
26	0x3d97d0b9	0.074128576
27	0x3d7992a5	0.060930867
28	0xbcc5a70c	-0.024127506
29	0x3b3e1b64	0.0029008025
30	0x3acfdd0a	0.0015858721
31	0xbdf4c430	-0.11951482
32	0xbde3de5c	-0.11126396
33	0xbd3f322d	-0.04667871
34	0xbde0b981	-0.10972882
35	0xbd1f781b	-0.0389329
36	0xbcc2a9a0	-0.023762524
37	0x3be99d02	0.0071293125
38	0xbc3a4188	-0.011368163
39	0xbce45825	-0.027874062
40	0x3db5164a	0.08842142
41	0xbca45b07	-0.020062936
42	0xbd96e85e	-0.07368539
43	0x3c615b7b	0.013754721
44	0xbb63aed9	-0.0034741668
45	0x3c6f4929	0.014604845
46	0xbba6fac1	-0.00509581
47	0x3d48d16a	0.049027838
48	0xbc0586da	-0.008149827
49	0xbd43de20	-0.047819257
50	0x3cd248ab	0.025669416
51	0x3d167bf6	0.036739312
52	0x3d587cb4	0.0528533
53	0xbdf1dffa	-0.11810298
54	0x3d98d477	0.074623995
55	0x3c8a82ae	0.016908016
56	0xbd885795	-0.0665733
57	0x3d835b7a	0.06413932
58	0xbdab1019	-0.0835268
59	0x3d2eab22	0.042643674
60	0x3cf56ece	0.029960062
61	0xbe0eed00	-0.13957596
62	0x3c1d8255	0.009613593
63	0xbd29e613	-0.04147918
64	0x3c1ef5a1	0.009702117
65	0x3d75398e	0.05986934
66	0xbc3050d0	-0.010761455
67	0x3bfe2416	0.0077557666
68	0xbd524451	-0.051334683
69	0x3bbd8fcb	0.0057849637
70	0xbc9aa54e	-0.018877652
71	0xbdf57f6a	-0.11987193
72	0xbbb684f8	-0.0055700503
73	0x3bc51bfd	0.0060152994
74	0xbc3081f4	-0.010773171
75	0x3c6bb27c	0.014385816
76	0xbde0b8c5	-0.10972742
77	0xbc8d5e62	-0.01725692
78	0x3c91a5e5	0.0177793
79	0xbc628ab0	-0.013827011
80	0x3c3dcbb4	0.011584211
81	0xbc187152	-0.009304361
82	0xbd1ad3f5	-0.037799794
83	0xbd91ea98	-0.07124823
84	0x3c4e6627	0.012597597
85	0xbce8b6e0	-0.028407514
86	0x3dd0d94d	0.10197697
87	0xba16d32d	-0.00057535135
88	0x3d652fdc	0.055953845
89	0x3d06559b	0.032796483
90	0x3d712ddc	0.058881626
91	0xbdb8dc0b	-0.09026345
92	0xbe46b683	-0.1940556
93	0x3ccfce64	0.02536697
94	0xbd628ff6	-0.055313073
95	0xbd94fcaa	-0.07274754
96	0xbd92f3df	-0.07175421
97	0x3d17ec4b	0.03709058
98	0xbe104416	-0.14088473
99	0xbd46afb0	-0.048507392
100	0x3d9b6f4a	0.07589586
101	0xbdbc7e3e	-0.09203766
102	0xbd6d3ddd	-0.057920326
103	0x3d017e37	0.03161451
104	0xbcd8dc44	-0.026472218
105	0x3ced3df2	0.028960202
106	0x3ce1dc1c	0.027570777
107	0x3dabcd22	0.08388735
108	0x3d3b25f1	0.04569048
109	0x3cdbdde6	0.026839208
110	0xbbe31c6f	-0.00693088
111	0x3d8a9624	0.06766918
112	0x3c077171	0.008266793
113	0x3bedb8e7	0.007254708
114	0x3dac25dc	0.084056586
115	0x3d8c7083	0.068573974
116	0xba7014f3	-0.0009158395
117	0xbcbfb19c	-0.02340012
118	0xbd6eda90	-0.058313906
119	0x3c546abe	0.012964902
120	0xbd9f7b18	-0.0778715
121	0xbcd78e01	-0.02631283
122	0xbd1f0823	-0.03882612
123	0xbd7192a1	-0.058977727
124	0x3c094ad4	0.008379657
125	0x39163624	0.00014325284
126	0x3c90d472	0.017679427
127	0x3cb3f078	0.02196525
128	0x3be0df87	0.006862584
129	0x3c90afd2	0.017661963
130	0xbd65effa	-0.056137063
131	0xbebdb366	-0.37050933
132	0xbcc87fd9	-0.024475025
133	0xbdfb2da6	-0.12264566
134	0x3c23f7fa	0.010007853
135	0xbb96cf03	-0.0046023144
136	0x3d84c8c9	0.06483609
137	0xbdcba248	-0.09943062
138	0xbdbdae8b	-0.09261807
139	0x3d5bb2cf	0.053637322
140	0xbc254493	-0.01008715
141	0xbd2539b1	-0.040338222
142	0xbbb81806	-0.005618098
143	0xbdd88a8f	-0.10573303
144	0xbd4b31d6	-0.049608074
145	0xbd1908d0	-0.03736192
146	0x3d857519	0.06516475
147	0xbe1814cf	-0.14851688
148	0xbeacf332	-0.33779293
149	0x3dd41a4d	0.10356579
150	0xbd61b667	-0.055105593
151	0x3d932e73	0.07186594
152	0xbe1294d0	-0.1431458
153	0xbced9275	-0.0290005
154	0xbd4dfb39	-0.050288413
155	0x3d93b07d	0.07211397
156	0xbce8be5f	-0.028411089
157	0xbc13821f	-0.009003191
158	0xbdb2ccf6	-0.087304994
159	0xbb9003d8	-0.0043949895
160	0x3c062ca1	0.008189351
161	0xbc88fbd9	-0.016721653
162	0xbd709534	-0.05873604
163	0xbc1bfb29	-0.0095203305
164	0xbda6ea26	-0.08150129
165	0xbb35355e	-0.0027650218
166	0x3befe87f	0.007321417
167	0xbe8d9faf	-0.2766089
168	0xbd4936a3	-0.04912437
169	0xbcf5aec8	-0.029990569
170	0xbde09c19	-0.10967273
171	0x3c97386d	0.018459523
172	0xbed5d374	-0.41762888
173	0x3c5a14bd	0.013310608
174	0xbdba787c	-0.09105012
175	0x3c8d7ca6	0.017271351
176	0xbcbe63dd	-0.023240978
177	0x3a1a0ade	0.0005876253
178	0x3d4cca91	0.04999787
179	0xbb7f151b	-0.0038922492
180	0xbcaf53ea	-0.021402318
181	0xbd17f7bb	-0.03710149
182	0x3c8833e8	0.016626313
183	0x3c311395	0.010807891
184	0xbca8a2d9	-0.020585464
185	0xbca0b932	-0.019619558
186	0xbcf12aad	-0.029439295
187	0xbdd672c5	-0.10471109
188	0x3d2760f8	0.04086396
189	0xbb6f6fbb	-0.0036535102
190	0xbd864215	-0.06555573
191	0xbe4d3fd7	-0.20043884
192	0xbdc4e555	-0.09614054
193	0x3d8a1583	0.06742384
194	0x3c71667b	0.014733906
195	0xbd7b0b88	-0.061290294
196	0x3d0a6b84	0.03379394
197	0x3d2b1327	0.041766312
198	0x3d467ceb	0.048458975
199	0xbc0e8171	-0.008697853
200	0x3cd60a7c	0.026128046
201	0xbc0bce81	-0.008533121
202	0xbd509645	-0.05092456
203	0x37e031e7	2.6726118e-05
204	0xbd23bae1	-0.039973143
205	0xbd80f91b	-0.06297513
206	0xbd92b4c0	-0.071633816
207	0x3c265bca	0.01015372
208	0xbd8c9048	-0.06863457
209	0x3d60c81c	0.05487834
210	0xbcc0ea1d	-0.023549134
211	0xbd313609	-0.043264423
212	0xbc2e3b84	-0.010634307
213	0x3d13b3e0	0.036060214
214	0x3d75167d	0.0598359
215	0xbd1a4bcd	-0.037669946
216	0xbceb8973	-0.028752064
217	0xbafdb797	-0.0019357082
218	0x3b9ea095	0.00484092
219	0x3c9b509b	0.018959334
220	0x3caf4b5f	0.021398244
221	0x3c68c1f2	0.014206396
222	0xbe6ee9a6	-0.23331317
223	0x3d73641b	0.05942164
224	0xbd1ba0d4	-0.037995175
225	0xbd81bd76	-0.06334965
226	0xbcfdcee0	-0.030982435
227	0x3cdf8f3c	0.02728998
228	0xbd8e4da4	-0.069484025
229	0x3cc2cf6a	0.023780543
230	0xbe4bc353	-0.19898729
231	0x3ceadd90	0.028670102
232	0xbd56ce96	-0.05244311
233	0x3da11e1e	0.078670725
234	0xbd44d351	-0.04805309
235	0xbcce5680	-0.02518773
236	0xbdd4e46e	-0.10395132
237	0x3c0f01ff	0.008728503
238	0xbd608efc	-0.05482386
239	0xbd5d2388	-0.053988963
240	0xbc913073	-0.017723298
241	0xbd87a0d5	-0.06622473
242	0xbd4069c8	-0.04697588
243	0x3d6ea602	0.058263786
244	0x3d14b433	0.036304664
245	0xbd1dcce1	-0.038525466
246	0xbe548206	-0.20752725
247	0x3dc1d148	0.09463745
248	0x3d82f119	0.06393642
249	0x3d09f69f	0.03368246
250	0xbc9bd48a	-0.019022245
251	0xbc762648	-0.015023775
252	0xbd2ddcb8	-0.042446822
253	0x3d3578b6	0.044304572
254	0x3d796389	0.06088594
255	0xbdc96431	-0.09833563

weight f4 [2, 300]
0	0x3d57c320	0.05267632
1	0xbc3c1326	-0.011479175
2	0xbfdbb506	-1.7164619
3	0xbb0e3a39	-0.0021702184
4	0xbc5aa9b1	-0.013346122
5	0xbc85079a	-0.016238976
6	0x3d023809	0.03179172
7	0xbbaee79c	-0.0053376686
8	0x3cf07798	0.029353902
9	0xbdbff96c	-0.09373745
10	0xbdc592cf	-0.09647142
11	0x3cece4d0	0.0289177
12	0x3de02ca6	0.10946016
13	0xb8b743f2	-8.738776e-05
14	0xbd7177b0	-0.058952034
15	0x3e605784	0.21908385
16	0xbd18c595	-0.037297804
17	0x3d9f7e97	0.07787817
18	0x3d498ee5	0.04920854
19	0x3d562f14	0.05229099
20	0x3d0fc3e2	0.035098918
21	0xba8eeb66	-0.0010903894
22	0xbb0ccc0e	-0.002148393
23	0xbe0eb44e	-0.13935968
24	0x3a4aa53d	0.0007730311
25	0x3d5d96c1	0.05409885
26	0xbe0efe95	-0.13964303
27	0x3e379466	0.17927703
28	0x3dd83e04	0.105587035
29	0x3ec6a75d	0.38799563
30	0xbd83a295	-0.064274944
31	0xbca09831	-0.01960382
32	0xbcc4421c	-0.023957305
33	0x3db44797	0.08802717
34	0x3e36b259	0.17841472
35	0x3a6813af	0.0008853031
36	0x3e2f9f9a	0.17150727
37	0xbb9d71bc	-0.004804818
38	0x3f16d3d6	0.58916986
39	0xbbdbc45d	-0.006706758
40	0xbc3eb324	-0.01163939
41	0x3d4b3595	0.049611647
42	0xbee849a5	-0.45368686
43	0x3a6e3638	0.0009087059
44	0xbc9710af	-0.018440573
45	0x3b9444c4	0.004524799
46	0xbcf1e4ee	-0.029528107
47	0xbd583a26	-0.05278983
48	0x3cd247a6	0.02566893
49	0x3b2ffd4d	0.002685386
50	0x3e922aa1	0.28548148
51	0xbca03a03	-0.019558912
52	0x3cdaedd4	0.026724733
53	0xbe38b6c8	-0.18038476
54	0x3e153e26	0.14574489
55	0x3d5456e4	0.051840678
56	0x3de3b2c1	0.11118079
57	0x3db5507e	0.08853243
58	0x3cba7819	0.022762345
59	0xbb9e4788	-0.0048303045
60	0x3b41dcc6	0.0029581054
61	0xbd866489	-0.06562144
62	0xbc9476c8	-0.018123046
63	0x3e6cb2d7	0.23115097
64	0x3d63691c	0.055520162
65	0x3e11b78e	0.14230177
66	0xbe0f0bf7	-0.13969408
67	0x3dc9143b	0.09818312
68	0x3e1547c7	0.14578162
69	0xbd56c8c1	-0.052437548
70	0x3d0af889	0.033928428
71	0x3d9af2d8	0.0756585
72	0x3c909f54	0.017654099
73	0xbd88fe2a	-0.06689103
74	0xbd75447f	-0.059879776
75	0x3cf8f660	0.030390918
76	0xbc82147b	-0.015878906
77	0xbdb16b82	-0.086630836
78	0x3a24008b	0.00062561844
79	0x3b357539	0.0027688278
80	0xbc8d0394	-0.01721362
81	0x3b946386	0.0045284657
82	0x3d847a5d	0.064686514
83	0x3d4f544d	0.050617505
84	0xbd3522e9	-0.044222746
85	0xbed06c7a	-0.4070776
86	0x3d956156	0.07293956
87	0x3e6c84dd	0.23097558
88	0x3d172995	0.03690489
89	0xbda179f2	-0.07884587
90	0x3e0d56c0	0.13802624
91	0xbebd27cd	-0.36944428
92	0x3c879247	0.016549243
93	0xbb18183a	-0.00232078
94	0xbf0dac32	-0.55340874
95	0xbba46182	-0.0050165066
96	0xbe77f732	-0.24215391
97	0x3cd780ff	0.026306627
98	0xbe14f9d8	-0.14548433
99	0x3e28f832	0.16500929
100	0x3ce8fe7e	0.028441664
101	0xbe0f8cea	-0.14018598
102	0x3d57c6a6	0.05267968
103	0xbd39f9b0	-0.045404136
104	0xbcb72792	-0.022357736
105	0x3df45d43	0.11931851
106	0xb9ac04e2	-0.00032810034
107	0x3d4acdde	0.049512736
108	0x3db4b66e	0.08823858
109	0x3dab5a45	0.08366827
110	0xbd81a9e6	-0.06331234
111	0x3e45e0c4	0.19324023
112	0xbc53d156	-0.012928328
113	0x3a840934	0.0010073544
114	0xbad96cf6	-0.0016588259
115	0x3de5d4f5	0.11222259
116	0x3e5600bf	0.20898722
117	0xbd693d19	-0.056943033
118	0x3df170f3	0.117891215
119	0xbc077b9c	-0.008269217
120	0xbd794cec	-0.060864374
121	0x3debc8a5	0.11512879
122	0x3cf968a0	0.030445397
123	0x3c0b8d61	0.008517594
124	0x38c9fb21	9.631203e-05
125	0x3c293d58	0.010329567
126	0xbe405155	-0.18781026
127	0xbd89798f	-0.067126386
128	0x3e37f247	0.17963515
129	0x3d309cab	0.04311816
130	0xbdb6e08c	-0.08929548
131	0x3c0c185f	0.008550732
132	0x3e0e43d2	0.13893059
133	0xbdfc58e7	-0.12321644
134	0xbcb6953b	-0.022287956
135	0x3a5e6559	0.000848373
136	0x3c1200e7	0.008911348
137	0x3eacd5d8	0.337569
138	0xbe5d6f73	-0.21624546
139	0x3d864ba5	0.06557397
140	0xbaab8fb9	-0.0013089097
141	0xbd6614fd	-0.05617236
142	0x3d05a5d3	0.032628845
143	0xbec74f52	-0.38927704
144	0xbc1878da	-0.009306157
145	0xbd812522	-0.06305911
146	0xbd948151	-0.07251228
147	0x3dc6c655	0.097057976
148	0x3d14d3d2	0.03633482
149	0xbd206c5c	-0.03916584
150	0xbeba3c24	-0.3637401
151	0xbe195fe6	-0.14977989
152	0xbe049cdc	-0.12950462
153	0x3e55c942	0.20877555
154	0x3d802916	0.062578365
155	0xbd17c59e	-0.037053697
156	0x3e45d53f	0.19319628
157	0xbd071de8	-0.032987505
158	0xbde1a0c1	-0.110169895
159	0x3d87aece	0.06625138
160	0xbc97d89b	-0.018535903
161	0x3dd09414	0.10184494
162	0x3c13c4f0	0.0090191215
163	0xbdd26954	-0.10273996
164	0x3d855c01	0.06511689
165	0x3bb079b4	0.005385602
166	0x3e04c454	0.12965518
167	0xbded855c	-0.11597702
168	0xbc47c5de	-0.012193171
169	0x3cb937ec	0.022609673
170	0xbe7229de	-0.23648784
171	0x3b4371a5	0.0029822376
172	0xbe19ad6e	-0.15007564
173	0xbd945c43	-0.0724416
174	0x3db5e516	0.08881585
175	0xbe0deb01	-0.13859178
176	0xbc381531	-0.011235521
177	0x3dd24386	0.10266785
178	0x3ddb7e71	0.10717476
179	0xbd97f5f3	-0.07419958
180	0x3d138729	0.03601757
181	0x3c45ad2a	0.012065211
182	0x3e542c97	0.20720135
183	0x3d6adee9	0.05734149
184	0xbb718627	-0.0036853643
185	0xbd57a238	-0.05264494
186	0xbd1953f2	-0.037433572
187	0x3e00216a	0.12512746
188	0xbd846618	-0.06464785
189	0xbd8c29e0	-0.068439245
190	0xbda032a9	-0.07822163
191	0x3d732ed4	0.05937083
192	0xbd0384f9	-0.032109234
193	0xbc4b7902	-0.012418987
194	0x3d7b3afc	0.06133555
195	0xbb8c1e78	-0.004276093
196	0x3e3ed9e4	0.18637806
197	0x3d85b043	0.0652776
198	0xbd7c022e	-0.061525516
199	0xbc5c6f38	-0.013454251
200	0xbd8d5928	-0.06901771
201	0x3e05c8da	0.130649
202	0x3d1657be	0.03670477
203	0xbc4b8bff	-0.012423514
204	0x3c1c60fc	0.009544607
205	0xbe9056ba	-0.28191167
206	0xbe18a956	-0.14908347
207	0xbb9bdd16	-0.00475658
208	0x3e59c836	0.2126778
209	0xbbbb444e	-0.0057149297
210	0x3d11ddca	0.035611905
211	0x3e73e5a9	0.23818077
212	0xbd8611a0	-0.065463305
213	0x3dbd353a	0.09238668
214	0xbc505ff9	-0.012718194
215	0x3e6425c5	0.22280033
216	0xbe91bfa9	-0.28466538
217	0xbd7990eb	-0.06092922
218	0x3b496409	0.0030729792
219	0x3d3e0050	0.046387017
220	0x3b05c490	0.002041135
221	0x3e11c24f	0.14234279
222	0xbe08145a	-0.13289014
223	0x3ca90aad	0.020634973
224	0xbc937664	-0.018000789
225	0x3d94f9d8	0.072742164
226	0xbb0b2348	-0.0021230746
227	0x3c0c8222	0.008575948
228	0xbf1ccf96	-0.6125425
229	0xbe07cda4	-0.1326204
230	0xbd62590e	-0.05526071
231	0x3cbe7276	0.023247939
232	0x3d3b9df1	0.04580492
233	0xbc86986b	-0.0164301
234	0xbc80cbf7	-0.015722258
235	0x3d71b040	0.059005976
236	0xbe00318a	-0.12518898
237	0xba7dbf08	-0.000967965
238	0xbd1fa9f6	-0.038980447
239	0x3da194af	0.07889687
240	0x3b378b50	0.002800662
241	0xbe090c0c	-0.13383502
242	0xb757aebf	-1.2855685e-05
243	0x3d42b699	0.04753742
244	0xbe03d271	-0.12873246
245	0x3d09f328	0.033679157
246	0xbe33d87d	-0.17563052
247	0x3bc8d4e9	0.0061288965
248	0x3e5f3ff1	0.21801735
249	0xbd57a27b	-0.052645188
250	0x3e85510b	0.26038393
251	0x3e236383	0.1595593
252	0xbce5531a	-0.027993727
253	0x3ad527d9	0.0016262486
254	0x3d3f664e	0.046728425
255	0x3e30178c	0.17196482

bias f4 [2]
0	0x3dbbfb57	0.09178799
1	0x3cb3d943	0.021954184
