HW4/rand_actor.pth (torch, 501335 bytes, 6 tensors)

weight f4 [400, 8]
00000000: 6a27 61be 018a f5be a47d 46be 0a17 293d
00000010: 7155 fbbd 12b2 a1bd 495e ea3d 841e a4be
00000020: 6345 b9be 9e5b dabe 2941 05be a598 5f3d
00000030: 749d a2bd e043 5a3e e16a cfbe 969b 00be
00000040: c4d4 b3bd 8955 9abd eace e23d 0eaf e63e
00000050: 2613 8b3d c8ac cb3e 10ee 28be 5679 b0be
00000060: 7a2e 4bbd 9c71 f2be cec5 c93e 4ccc f83e
00000070: 8589 693e efc5 983e 8882 e33e 540f 24bd
00000080: f3ca 113b 14a0 20be 48da 0a3f dcfa 5d3e
00000090: f623 4bbe 0b6e e63e f80f f43c 7a97 77be
000000a0: 3762 afbe a51c 833c 396a 273f 2d47 fe3e
000000b0: a8ea 4bbe 1001 133f d940 f9be 17f4 bf3d
000000c0: 6009 f7be 86ff b8be 5f87 cbbd b9da 88be
000000d0: cc6b 11be addc dc3e f33e e6be 70bf 8c3e
000000e0: 4957 b1be bba0 bfbd 9af3 7bbe 2884 973e
000000f0: e465 25be 36cf a4bc d7ba bc3e fe29 873e
00000100: 4c18 a93d 51e0 d23b a90f c2be 6c1e 0cbf
00000110: d33d 853c 803e f0be 7740 99be 45a3 723e
00000120: fbd3 dc3c f8b1 1bbd f56a c1be 14c1 12bf
00000130: 9f56 67ba 211e 903e c38f 1bbf a32f a8be
00000140: a817 8b3e e1cf 07be 91d9 b23d 8f66 3a3f
00000150: 5f00 fdbd 5618 1c3e 2772 fc3d c68a 493e
00000160: 4680 ccbe 3a98 34be 8d9f 4ebf 4163 0fbf
00000170: c902 40bd b24b 35be 4aed 023f 6208 32bd
00000180: c627 353e 6a0d a0bd a35d 4ebe 003d 783d
00000190: d127 833e 86e8 61be ee53 ecbe 9d8a 5e3e
000001a0: 8592 0cbe c7d0 b53e 0706 2e3f fc3e 2cbe
000001b0: 0e86 fabd b81e 09bf 8253 3ebe ede2 92be
000001c0: 1791 92be 37b2 ccbe 82b0 083f 084b fcbe
000001d0: 8d60 44be b8d8 f0be 7c0c 91be fc95 ac3b
000001e0: 3e2c cdbe e7e0 87be 7a5f 9f3d c2c6 b3be
000001f0: 0939 843e 0b67 0b3e ed27 193e 6d3b 873d
00000200: 0f2b 313e fb28 f43d a408 8b3e efb2 f33e
00000210: f64a 833e 573e 39be b4c7 e2be c3c5 a53d
00000220: f4f2 a63e 67e6 aabe 0885 b0be d702 88be
00000230: 8181 6b3e 6ef3 95be 0f64 11be 45c1 9a3e
00000240: a1e7 cbbe a073 05be 8f22 df3e f711 ae3d
00000250: 314c c73d 7294 f1bd 215a 2e3e 768a ffbd
00000260: e92a 21be 65b1 5dbe 3b40 ab3d 1759 37be
00000270: 286e 083e 2707 453e 1c8c e3be 700e 18be
00000280: 477d 9fbe f080 3cbe 31f9 f33d a37b 193d
00000290: 5be0 56bd d6a7 f43e 2919 993e d77c f83e
000002a0: a4b4 1ebe 64a7 f4be b201 cabe 4a7b 18bf
000002b0: a7f8 2cbd d29d b5bd 38af 84be fe85 9e3d
000002c0: fb31 e33e 7a07 a93e 4654 923e 7023 0f3f
000002d0: ac56 56bc db42 003e 250d d0bc 64b4 4a3e
000002e0: 6b21 053e 77c0 75be f574 313e 5486 a1be
000002f0: 8fc2 183d 64a3 03bf f384 613c 51b6 1fbd
00000300: a66b aabc 8152 95be 6a4f 1bbe 3ebd e03d
00000310: 1c51 ef3d 12a3 babe f92d 133d ea26 ebbc
00000320: d464 06be a0f2 743e c9ef 183f 2791 88be
00000330: 0982 fe3d ff9d 71be ae4f 55be 96e9 6bbe
00000340: 93e6 ebbd 7be5 05be 39e3 e43e c19c 333f
00000350: df16 adbd 3e33 683e 6181 9b3e 77b4 3a3d
00000360: a18b 9cbe 52a8 d2be d485 ec3d 14d5 a13e
00000370: 0f80 07be 147a 0fbe 9ea3 cf3e 47d9 3c3e
00000380: f031 1ebd 3d50 b53e 59c1 233e fc34 a03d
00000390: b9ad edbc bfb9 683e 1cbc 5dbe 33e9 39bd
000003a0: 1880 323e 963a b03e 089c b8bd 9990 c03e
000003b0: 2882 19bd 8db6 5ebe a119 9fbe 8218 433e
000003c0: 242e a53d decf 303e c8d7 49be 5c9a 563d
000003d0: e80c 183e bd2e d8be f20f a83e d619 72be
000003e0: e3e4 173d 866c debe 204a 14be 349b a63d
000003f0: 67ad 8f3e 2f09 56bd 4897 babd 84a5 83be
-0.21987692 -0.4795685 -0.19383866 0.041281737 -0.12272156 -0.07895292 0.11443765 -0.32054532
-0.3618575 -0.42648023 -0.13013138 0.054588933 -0.07940188 0.21314955 -0.4051123 -0.12559351
-0.08780816 -0.07535846 0.11074622 0.4505543 0.06790762 0.3978026 -0.16497064 -0.34467572
-0.04960487 -0.47352302 0.39408726 0.48593366 0.22806366 0.2983851 0.44435525 -0.04005368
0.0022246211 -0.15686065 0.5423932 0.21677727 -0.19837937 0.4500583 0.02979277 -0.24178877
-0.3425462 0.01600487 0.6539646 0.49663678 -0.19913733 0.57423496 -0.48682287 0.09372728
-0.4824934 -0.3613245 -0.09937929 -0.26729372 -0.14201277 0.43137112 -0.449699 0.27489805
-0.34636906 -0.09356829 -0.24604645 0.29593015 -0.1615215 -0.020118337 0.36861297 0.26399225
0.082565874 0.006435432 -0.37902573 -0.5473392 0.016264832 -0.46922684 -0.29931995 0.23695095
0.026956549 -0.03801152 -0.37776914 -0.57325864 -0.0008824858 0.28147987 -0.6076624 -0.32848844
0.27166486 -0.13262893 0.08732904 0.7281274 -0.123535864 0.15243658 0.1232646 0.19681844
-0.39941615 -0.17636195 -0.80712205 -0.56010824 -0.046877656 -0.17704657 0.51143324 -0.043465026
0.17690954 -0.078150585 -0.20152907 0.06060505 0.25616315 -0.22061357 -0.46157783 0.21732564
-0.13727768 0.35510847 0.67977947 -0.16820902 -0.122326 -0.535625 -0.18586543 -0.28688756
-0.2862632 -0.39979717 0.5339433 -0.49275994 -0.19177456 -0.47040343 -0.28329837 0.005266903
-0.40072817 -0.26538774 0.077818826 -0.35112578 0.25824764 0.13613527 0.14956637 0.066031314
0.17301582 0.11921879 0.2715503 0.47597453 0.25643128 -0.18090187 -0.44292986 0.08094361
0.32607234 -0.33378908 -0.34476495 -0.26564667 0.2299862 -0.29287285 -0.14198326 0.30225578
-0.39825156 -0.13032389 0.43581054 0.0849952 0.09731329 -0.11795892 0.17026569 -0.12477581
-0.15739025 -0.21649702 0.0836186 -0.17905079 0.13323271 0.1924101 -0.44442832 -0.14849257
-0.31150267 -0.18408561 0.11912764 0.037471425 -0.052460056 0.477843 0.29902008 0.48532745
-0.15498596 -0.4778396 -0.39454418 -0.59563124 -0.04222932 -0.088679925 -0.2591493 0.07740401
0.4437407 0.33013517 0.2857992 0.5591345 -0.013082188 0.12525503 -0.025396893 0.19795376
0.13001029 -0.23999201 0.17329772 -0.31547797 0.03729492 -0.5142119 0.013764608 -0.03899223
-0.020803284 -0.29164508 -0.15167013 0.10973595 0.11685392 -0.36452538 0.035932515 -0.02870508
-0.131244 0.23920679 0.59740883 -0.26673242 0.12427146 -0.23595427 -0.20831177 -0.23038325
-0.11518588 -0.13075821 0.44704607 0.7016106 -0.08451628 0.22675797 0.30372146 0.04558226
-0.30575278 -0.41144043 0.11548963 0.31607878 -0.13232444 -0.14011413 0.40554518 0.1844226
-0.038621843 0.3541278 0.15991725 0.07822606 -0.029013501 0.22727107 -0.2165379 -0.04538841
0.17431676 0.34419698 -0.090141356 0.3761032 -0.037477642 -0.21749325 -0.3107424 0.19052318
0.08065441 0.17266795 -0.1971122 0.052393302 0.14848673 -0.42223158 0.32824665 -0.23642668
0.037083518 -0.43442172 -0.14481401 0.081350714 0.28061983 -0.052254852 -0.09110886 -0.25712216

bias f4 [400]
00000000: 9725 d6be 2ac8 b3be cc35 93bd 870b fabe
00000010: bf5d 96be 4f38 66be d76f 81be e5f9 0bbf
00000020: 3ef3 203d e4cd 5e3e 314d 883e 7203 4d3e
00000030: 4aec 93be 8f42 e2bd 76d9 b6be d396 8fbc
00000040: c42b 6b3d e410 633d 8312 203e 801f 553e
00000050: dfdc 38be a8f2 8c3d c3b3 b43e 792b f8bc
00000060: c384 e7be 3db0 a6be 2771 7f3d df51 4ebd
00000070: 885b e33e 8297 503e 393c f53d e8a2 cfbd
00000080: 75ff 953e f44f 14ba e415 a33d 392a a8be
00000090: 22aa b4bd c881 3b3e 0c6f 323d e6a2 19bd
000000a0: 576b 6f3d c558 3bbe 1da0 3d3e abac 673e
000000b0: 343c 1a3e 903f f3be 096b 9cbe 31ba f23d
000000c0: 97f4 54bd e5ed 873e e20a 943e f6bc 40be
000000d0: aa92 b7be 1062 e6be 8676 473e 817a df3d
000000e0: a2ef 00be d9ff cdbe acdd b6be 28d1 bfbd
000000f0: d7fc 863e 9293 aebc f40e e5be a6a0 4dbe
00000100: fbaf bf3e ef46 423e d68d 99be 3489 b8be
00000110: 7ed0 82be be41 d33c aad4 7abe f6ab 9ebd
00000120: 6594 39be 03a9 ecbe d3ee bfbe 7ef7 05bf
00000130: acb5 90be 5c54 45be 8cb6 8cbe e768 823b
00000140: eeab a1bd 6cba 933e 1319 f2bd 71f7 e23e
00000150: 2dfb 90be 95ff ffbe e20e 0f3e bcb0 7dbe
00000160: 3983 113d 2d68 e7be 5e33 9e3e 7017 e33e
00000170: 0d98 0a3e 45ad 823e 39f0 e03e 6596 683e
00000180: 4d9a 1ebf ba85 7ebe 61e8 70be 723f 6c3e
00000190: fa9e 01bd 2125 0a3c a879 37be 20a2 113d
000001a0: 4e5d f3bc fc13 953e 8646 64be 3e96 92bd
000001b0: f2d5 a33e b5a9 953e 7207 63be bb9d a33e
000001c0: 7fb2 763e 5007 8c3e 57ee cdbc 5023 27be
000001d0: d1ce e1bd 3a71 3a3e 2c84 c93d 1906 afbe
000001e0: 6eaf 803e 08dd efbe 1ae4 973e b8b5 be3e
000001f0: 6eb4 273a 5f38 25be 452e da3d fa19 57be
00000200: 6b38 eebe 94ca 17be 4c6e 83bd b1b2 b13e
00000210: fd1e 01bd fc98 ddbe a37f 02bf 92a6 90bd
00000220: cd9b 283e 0cb0 4abe 06dc 193e f71b e2be
00000230: 9999 ad3e 92a5 83be 3ed1 22be 9d02 9abe
00000240: 85e8 8cbe 9c5e 353d 68c8 d83d 2517 053e
00000250: 7045 f9be 3ed0 7a3e 7745 043d 6661 643e
00000260: d117 20bd 7799 5abd 8589 c23d fcde ec3c
00000270: b3c3 82be f772 863d 3529 26be 11f7 113e
00000280: 5e0e 81be a60a f9be 234e d7be 23b8 91be
00000290: 4efe 63be 71be 823d 4c02 f0bd e09d 64be
000002a0: c4a8 84bd 00e6 15be e6e7 193e 2358 b2be
000002b0: dc71 68be 3842 6bbe edca 4d3b 30d6 0b3d
000002c0: 4c33 92bd 22b1 b63e 9285 f8bd 924f f4bd
000002d0: bb27 cd3d 0b8e 923e d219 823e 3467 81bd
000002e0: 7e65 3ebe 7e2e d63d 485a 1a3e cfdc 85bd
000002f0: d31e f93d b328 ba3e c25b 12be 1ccf 6bbe
00000300: 98f6 c5be 9a2b 703e c173 ab3e dda0 5cbe
00000310: bf4d 15be ee17 303e 5eee b5bd aec4 d63e
00000320: a930 12bd d29e 07bf 1af6 f6be eb7c 98be
00000330: 529e 6d3e 3264 c33d ebd5 72be a47d e33e
00000340: a299 07be ca7c 093e b1d0 c73e 0f18 703e
00000350: d5c3 38bd 7d20 e63e 2829 60bd d4f9 f83d
00000360: a4fd b93d 2620 83be 8702 9cbe 0d1b 993d
00000370: b5d7 77be 5057 bdbe a80f 0abb f093 efbe
00000380: a878 fc3d aa99 9bbc 5d2e 4bbe e1db bb3e
00000390: bb54 0e3e c31b 273c 8d22 8fbe f2cf bd3e
000003a0: 7dbe d5bd a20b b53e 79d6 953d 2b4b 6e3e
000003b0: 6e86 d63e f5a4 37be e145 ddbe 9430 08bf
000003c0: 42cb 9f3e 7895 913e aebf 6cbe 44c8 a2be
000003d0: 7720 fdbc d822 2f3d 1876 353e ec54 ebbd
000003e0: bde6 a7be d7ed 863e 15b0 81be 1158 a5be
000003f0: a045 6ebe b5b1 20bc 2bed 503e af25 253e
-0.41825554 -0.3511365 -0.07187995 -0.4883692 -0.29368398 -0.22482418 -0.2528064 -0.54678184
0.039294474 0.21758229 0.26621392 0.20020846 -0.28891212 -0.11047851 -0.35712785 -0.017527973
0.057414785 0.05543603 0.15632062 0.20812798 -0.18053006 0.068822205 0.35293397 -0.030294167
-0.45218477 -0.32556334 0.06236377 -0.050371047 0.4440577 0.20370296 0.11974377 -0.10138494
0.2929646 -0.0005657666 0.0796316 -0.32844713 -0.08821513 0.18311226 0.043562934 -0.037508868
0.058451977 -0.18295582 0.1851811 0.22624461 0.15062028 -0.47509432 -0.3055041 0.118519194
-0.05199107 0.26548687 0.28914553 -0.18822083 -0.35854083 -0.4499669 0.19478807 0.10912038
-0.12591413 -0.4023426 -0.35715997 -0.09366065 0.26364776 -0.021310601 -0.4473797 -0.20080814
0.3743895 0.18972372 -0.29991025 -0.36042178 -0.25549692 0.025788184 -0.24495187 -0.07747643
-0.18123014 -0.46222696 -0.37486896 -0.5233077 -0.28263605 -0.19270462 -0.27483022 0.0039797905
-0.07894121 0.28853166 -0.11821189 0.44329408 -0.28316632 -0.4999968 0.13970521 -0.2477445
0.035525534 -0.45196667 0.30898565 0.4435382 0.13534565 0.2552282 0.43933275 0.22713621
-0.61954194 -0.248557 -0.23526146 0.23071077 -0.031645752 0.008431704 -0.17917502 0.035555005
-0.029707577 0.2911681 -0.22292528 -0.07157563 0.31999165 0.2923104 -0.22170809 0.31956276
0.24091528 0.2734933 -0.025138063 -0.16322064 -0.11025775 0.18207255 0.09839663 -0.3418434
0.25133842 -0.4684832 0.29666215 0.37248015 0.00063974306 -0.16134785 0.106533565 -0.21006003
-0.46527418 -0.14823371 -0.06417522 0.34706643 -0.031523693 -0.4328078 -0.5097601 -0.07063021
0.16465683 -0.19793719 0.15025339 -0.4416196 0.33906248 -0.25712258 -0.15900132 -0.3008012
-0.27521148 0.04427968 0.105850995 0.1299711 -0.4868579 0.244935 0.03229281 0.2230278
-0.039085213 -0.05336901 0.09498886 0.028914921 -0.25539932 0.065648966 -0.16226657 0.14254405
-0.25206274 -0.48640937 -0.420518 -0.28460798 -0.22264978 0.0638398 -0.11719188 -0.2232585
-0.06477502 -0.1463852 0.15029868 -0.34832868 -0.22699684 -0.22974479 0.003140147 0.034139812
-0.0713869 0.35682017 -0.121348515 -0.11929239 0.100173436 0.28623995 0.25410324 -0.063185126
-0.18593404 0.104580864 0.15073502 -0.065362565 0.121640824 0.36359176 -0.14292815 -0.23028225
-0.386647 0.23454133 0.3348675 -0.2154574 -0.14580439 0.17196628 -0.088833556 0.4194693
-0.035690937 -0.52976716 -0.48234636 -0.29782805 0.23204926 0.09540595 -0.23714416 0.44431794
-0.132422 0.1342651 0.39026406 0.23446678 -0.045108635 0.44946662 -0.05472675 0.12157026
0.09081581 -0.25610465 -0.30470678 0.07475863 -0.2420338 -0.36980677 -0.002106646 -0.46792555
0.12327701 -0.018994171 -0.19841905 0.36691192 0.1389951 0.01019949 -0.27956048 0.37072712
-0.104367234 0.35360438 0.07316298 0.23270862 0.41899437 -0.1793402 -0.43217376 -0.53199124
0.3120976 0.28434348 -0.23119995 -0.31793416 -0.03089927 0.04275784 0.1772083 -0.11490807
-0.32793227 0.26353332 -0.25329652 -0.32293752 -0.23268747 -0.009807994 0.20402972 0.16127656

weight f4 [300, 400]
00000000: 7966 023d a8be 4bbd 26e5 f2bc 9c0a 59bd
00000010: 2b0f a93c 104e d63c 378e 7e3c 7183 25bd
00000020: 8a44 aabc 73ef 673d 493e 733c 5e2a 033e
00000030: 2ba0 913c 6268 83bc d821 79bd 8dc2 76bc
00000040: 17fd 00bd 3f58 7bbd d516 26bd 6df0 96bb
00000050: aae2 fcbc 3459 4b3d c79e 37be d40a 173d
00000060: 394d 0e3d 1d96 173d 6e13 903b 860b 93bc
00000070: 1862 293d e7d8 0ebe bb75 103c fd44 a23c
00000080: 9ca3 c9bb e2c5 55bd ba0b f4bc 7568 083c
00000090: 45e1 f53d 0169 24bd bc55 eabc 19ba 593c
000000a0: 90b3 b83c afc6 863e d7b9 4abd dfe0 b8bd
000000b0: 0f1b a2bd 6a55 d5bc 5afb f0bc b898 12bd
000000c0: cfbb ec3c 5a07 4abc 62e2 9c3d 79ae 543c
000000d0: 6e21 c0bd 9931 1c3d ecff 273d b754 343d
000000e0: bf58 e83d cda9 8dbd 167a 11bd c1f0 5dbd
000000f0: 77b2 813c 4822 c73c 665d 903c 7f2e b93d
00000100: 7118 e2bc 3325 063d b79a 66bc ec60 f8bb
00000110: 1839 01bc ef71 143e d8f9 af3c 848b 4d3d
00000120: 5853 81bc 7b3e 1abd 0991 fe3c 7c54 913c
00000130: 740c f63c 3b2e 363c 4f06 253d 11d4 dbbc
00000140: c63b 4ebd 6216 3eba 36c9 1abd 30c0 2fbc
00000150: 8220 dbbc a68f 343d 8890 f9bd e4c6 90be
00000160: ed5d ff3c 7e5b f63c 5bb7 57bd 27c2 52bd
00000170: 6aa2 c6bc 4aba 9cbd d40f 73be c8d3 2a3d
00000180: 8f6f 4ebc daa6 563d 5a09 7dbd 7639 673d
00000190: 731d 73ba 66d9 8cbc 8e31 2a3d e491 8abe
000001a0: 14f5 26bd c0db 823b 3e86 6f3d 271f 913d
000001b0: 9b15 363c 8c01 f4ba da75 f8bc acd5 d43b
000001c0: 3ec3 57bd 8544 f8bd c0de 943d f3fa 043e
000001d0: bb8b 263e 10b0 033c e653 a43d 4185 ffbd
000001e0: 5644 603d 85d0 b13c 474c 97bd 3ad1 bebc
000001f0: 0057 03bd 5eef a13c 2419 103d 6dd4 33bd
00000200: af03 50bd 450d c0bc a51c 34bd a0cf dc3c
00000210: 22ad 0b3d 91fb 9cbc 976b 933d 1c71 023e
00000220: fcee 3ebc 7aaf 443d 23d3 6a3d 6bd5 0f3d
00000230: 5b34 89bd 46ce 873c 221b c73d 4a25 0abe
00000240: 11eb 103e ddd2 8bbb 3976 65be ca61 9c3b
00000250: f868 a53d 672b 79bd 12a7 193e 43f1 b6bc
00000260: b8fc 8e3b ee35 b23c 22a1 073d 5326 7cbb
00000270: 37e1 2a3c 1ce6 80bc 0a34 133b 6972 813c
00000280: 9c54 aabd 31de 9bba e018 38bc 9f61 c6bb
00000290: 97ec f83b f11a 35bd e50d 593e 0210 303d
000002a0: 254c d33b d838 003d a01c e1bd 43d4 b6bc
000002b0: 947a fbbc 27c7 dabd 50e2 673d 651b 853c
000002c0: 70d4 243e a3b4 3e3d dcdd 773d 0604 3c3d
000002d0: d104 ff3c 12e3 4c3d 1e32 ca3d 6d41 81bd
000002e0: 6a59 09bc d942 643c c7d3 48bd 7451 c2bc
000002f0: 3377 9d3c 4a53 213b 594c 7c3d 54c8 38bd
00000300: 62c5 233d 2497 aabd 66e0 98bc e54a d73d
00000310: 9345 f5b9 595d 2cbd 3f0d 69ba fe8a fcbd
00000320: 6b8b 0abb b3db 233d 5f76 753a f529 a43c
00000330: 887b 3bbe 0a0a 553d e8fa 8c3d 8be6 91bd
00000340: 8d04 173d e436 f0bc 5b4a 843c a58e 88bd
00000350: ecde 23bd 7baf 70bd b8cb 63bd e6e5 3b3c
00000360: 4b47 80bd 9849 db3c 083e 89bc 3d5b 0dbc
00000370: 0a48 383d e2b0 16bd 090f c43d 9b27 1fbd
00000380: 9d73 ba3c a334 f8bd 1e25 ef3c 46e5 a9bd
00000390: 34f6 34bd 0f4b 933d d366 93bd c451 61bd
000003a0: 95e9 803d c396 97bc 73de 97bd ade1 4ebc
000003b0: 199f 7fbb 0361 a1bd 6bf1 33bd 12a7 f6bd
000003c0: 1576 e33b aba8 a9bd 7964 b73d 9852 1c3e
000003d0: 623a 1e3c 3a5d 8c3d ae01 1bbd 2cc7 1a3c
000003e0: e80d 6e3d 16ce debc e2d0 32bd d9b4 1b3d
000003f0: 3ec6 2a3b 24ac 043e 560d 10bd 25f3 34bd
0.031836007 -0.04974237 -0.029650282 -0.052988634 0.020637115 0.02616027 0.015536836 -0.040408555
-0.020784635 0.05662484 0.014846393 0.1280913 0.01777657 -0.016040985 -0.06082329 -0.015061033
-0.031491365 -0.061363455 -0.040549118 -0.0046062977 -0.0308698 0.049645618 -0.17931662 0.03687556
0.034741614 0.037008394 0.0043968474 -0.01794983 0.041353315 -0.13949929 0.008817132 0.019808287
-0.006153537 -0.05219067 -0.029790748 0.008325686 0.120058574 -0.040139202 -0.028605334 0.013288998
0.02254656 0.2632346 -0.049493637 -0.09027266 -0.07915317 -0.026041705 -0.029416729 -0.035790175
0.028898148 -0.012330854 0.076603666 0.012981051 -0.09381376 0.038133238 0.04101555 0.044026103
0.11345052 -0.069171526 -0.03551682 -0.05418468 0.015832169 0.024308339 0.01762266 0.090420716
-0.027599545 0.03275032 -0.014074973 -0.0075799134 -0.007887147 0.14496587 0.02148144 0.05018188
-0.015786812 -0.037657242 0.031075018 0.01774048 0.030035235 0.011119421 0.04028922 -0.02683452
-0.050349973 -0.000725126 -0.037789546 -0.010726973 -0.0267489 0.044082306 -0.1218577 -0.28276742
0.031172717 0.030072924 -0.052665096 -0.05145469 -0.024247367 -0.07652719 -0.23736507 0.041705877
-0.01259984 0.052405216 -0.061776496 0.056451283 -0.00092741026 -0.017193507 0.041551165 -0.2706443
-0.04076107 0.0039934814 0.058477633 0.0708602 0.01111355 -0.0018616184 -0.030329634 0.0064951982
-0.05267643 -0.12122444 0.07269049 0.12986355 0.1626424 0.008037582 0.08023815 -0.12476588
0.05475267 0.021705875 -0.073875956 -0.023293126 -0.03206539 0.01976746 0.035180226 -0.043903757
-0.050784763 -0.023443827 -0.04397263 0.026954472 0.03410066 -0.019162925 0.071982555 0.1273846
-0.011653658 0.04801891 0.057330262 0.03511564 -0.06699439 0.016577851 0.09721972 -0.13490787
0.1415217 -0.00426708 -0.2240838 0.0047723996 0.08076662 -0.060832407 0.15005139 -0.02233184
0.0043636225 0.021754231 0.033112653 -0.0038474991 0.010429672 -0.015734725 0.0022461438 0.015801625
-0.08316919 -0.001189178 -0.011236399 -0.006054118 0.007596563 -0.044215146 0.21196707 0.042984016
0.006448286 0.03130421 -0.10991788 -0.022318011 -0.030698098 -0.106825165 0.056612313 0.016248414
0.16096663 0.046558987 0.060514316 0.045902275 0.031130226 0.05002124 0.0987284 -0.06311307
-0.008383134 0.013931953 -0.04903009 -0.02372048 0.019221878 0.0024616295 0.06159625 -0.045112923
0.03998316 -0.08329609 -0.018661689 0.10512332 -0.00046781878 -0.04208121 -0.00088902185 -0.12331198
-0.0021140228 0.040004443 0.0009363647 0.020039538 -0.18308842 0.052011527 0.06883794 -0.07124051
0.036869574 -0.029323049 0.016148737 -0.06667832 -0.040007517 -0.0587611 -0.055614203 0.011468386
-0.06263598 0.02676849 -0.016753212 -0.00862771 0.044990577 -0.036789782 0.0957318 -0.03885613
0.022760207 -0.12119415 0.029192504 -0.082956836 -0.04418011 0.07192051 -0.071973465 -0.05500962
0.06294552 -0.018504506 -0.07415476 -0.0126270475 -0.0039004742 -0.07879832 -0.043931406 -0.12043585
0.0069415667 -0.08284124 0.089547105 0.15265882 0.009657474 0.06853719 -0.0378434 0.0094469
0.05811873 -0.027197879 -0.043656237 0.038014267 0.0026058103 0.12956291 -0.03516897 -0.044177193

bias f4 [300]
00000000: f7d9 4ebd 8169 dc3c a087 283d d953 ae3d
00000010: 98d1 77bd 351f 81bd 52c6 c8bc 7e87 1abc
00000020: 274c ae3b 577d 01bd 0a63 783d 4fd6 61be
00000030: c06b 1f3d 8810 36bd 4f9c 2fbd 3063 0abd
00000040: f988 42bd 0779 663d 4fcf 14bd 3124 d23c
00000050: 4b62 793d a89a 0b3c c80d 08bc ade5 b8bd
00000060: c768 24bd d03f b63c 7fd8 b13c 289d 4b3d
00000070: 3fe6 643d 0f9e 4b3d 8769 dabc 6b13 9e3b
00000080: c5d7 c9bc cea0 27bc a8f0 bc3c 935c bcbd
00000090: e44a 82ba 0265 a0bb 7ce2 da3c 9a03 21bb
000000a0: 4239 113d aecc 22bc 864b de3c 04b4 813c
000000b0: 16b4 143d d484 2b3d 153d b5bd b9e9 9a3c
000000c0: 3978 7a3d 66fb 4d3c 1586 f2bb af93 a93d
000000d0: ef03 e53d ded3 8cbc cc82 eb3d 5671 1c3d
000000e0: 8ebe 2bbd 57de 573c aaf8 39bd 4a71 1a3d
000000f0: a4e2 ab3d 8078 16bd 9fc5 673d 750c 5fbd
00000100: dce9 793d 97d4 e53c 240d 823d 8de6 30bd
00000110: 4afa 163d 1882 79bb 7e52 b63d 4135 8ebd
00000120: 7531 41bd c3ea dfbc 5dd3 123d 44f7 c33c
00000130: 1ddd f3bd 89c1 023d 55ab 903c 6f62 66bd
00000140: c45b a2bd eaf5 4b3d ade9 9d3c 54b9 903c
00000150: 9b62 4e3d da91 de3c 2c0f a9ba e097 ddbc
00000160: 208d 7bbd e589 abbc afba e73d f847 20bc
00000170: e0df 8abc e4b9 4a3d 820c 273c dea4 3fbd
00000180: e52f abbc 631e ff3d 0c22 0bbb 42d5 3a3d
00000190: 6b48 28bc ab56 213d 5cb3 263b 663f 813d
000001a0: 27b0 933d 5714 953d 151d a23d 3d8c d6bc
000001b0: bcaa a2bc b970 9d3c bb0d 6e3d 1ed2 853d
000001c0: 2505 243d a9a7 ba3c e2a3 8a3b 31a2 cf3d
000001d0: 2c50 92bd 0f4e 8fbd bea9 77bd 4d74 8d3c
000001e0: 07f7 963c 2338 02be a818 39bd c918 4f3d
000001f0: af12 16bd 81e3 ad3a 9794 ce3c d107 863c
00000200: 7930 483d da67 b23c dedb f2bc 79df ce3c
00000210: e8ab b43c 1d64 373c a879 42bd 679d aab9
00000220: 13e0 803d fd66 e4bd 4e03 1ebe 7f30 c1bd
00000230: 0561 37bc 521b b3bc cfdf 5cbd f639 2cbd
00000240: 6d18 12bd 3024 593d ce5a e93c c952 2cbd
00000250: 630b 40bd f340 7d3d 4710 cebc 9539 87bc
00000260: c5ef 94bd 9bfa af3d a11d b33d caef a6bc
00000270: 4831 ba3c d34c 423d c190 87bd 8163 1e3b
00000280: 0b30 043d eb44 8e3d 17a1 2dbc 6a42 95bc
00000290: de6e 2c3a 7945 e1bb db2e 0cbd 9f5b 06bc
000002a0: 375f 0dbe f92d 9abe d577 31bd d95b b23c
000002b0: 54eb 00be adcc 51be 1324 d8bc 6f91 673d
000002c0: 3817 1ebd 69c4 ac3d f03d 5bbb b90e 8fbd
000002d0: cd41 b7bd b78e 05bd b171 da3c e8d9 80bd
000002e0: 9c98 3dbc ee8b 05bc 6c5a 1cbc 4b74 363b
000002f0: 4049 143d 1e70 8d3d 14b8 94bd bb5e 053d
00000300: a12e 70bc 78d2 7138 e35e 963d 6b99 833c
00000310: 13da cc3c 5790 29bd 3c1e 2c3c 3101 f93c
00000320: ddf4 873d c6cd 94bd d23d 90bc 53b4 e83c
00000330: 1022 01bd b430 04bd 30a0 f63c db16 5e3c
00000340: 2f7c b2bb 00d2 c23c 66ef d93c 9488 093d
00000350: cd7c 503d 202b 273c 999b 013d 0694 a23c
00000360: f33d efbc 9ea1 02bd 7b90 f13b 0795 25bd
00000370: 2b36 0a3d ae66 72bd b14c 09be cee1 053d
00000380: 51a4 ffba b85a 2cbd 6bfb a5bb fb45 423c
00000390: 1172 8b3c dfe7 7ebe 9b68 213d 0a79 813d
000003a0: 2b89 833d 2d1f 363c 97e7 2abe 8655 c8bc
000003b0: 9bd2 dcbc 7601 843c 4068 8a3c 5432 87bd
000003c0: 6696 9bbc b547 1ebe 5105 46bd 92d4 d2bb
000003d0: c0ef a13d 8457 cbbc 4e45 84bd fb41 a4bd
000003e0: d345 1ebd 266d d73d ea30 f7bc d7b4 f9bc
000003f0: 7db1 41bc 2b4a 02be 2709 d43c 34c6 67bc
-0.050500836 0.026905777 0.041144967 0.085120864 -0.06050262 -0.063047804 -0.024508629 -0.009431718
0.0053191367 -0.031613674 0.060641326 -0.22054408 0.038921118 -0.04444936 -0.042873677 -0.033786
-0.04749391 0.056267764 -0.036330517 0.025652023 0.060884755 0.00852076 -0.008304067 -0.09028182
-0.040138986 0.022247225 0.021709679 0.049710423 0.055883642 0.049711283 -0.026661647 0.004824092
-0.02463902 -0.01023121 0.023063973 -0.09197345 -0.0009940532 -0.0048948536 0.026719324 -0.0024568797
0.035454996 -0.009936495 0.027135622 0.015832908 0.036304556 0.04187472 -0.08849541 0.018910276
0.06114981 0.012572145 -0.0074012377 0.082801215 0.11182391 -0.01719087 0.11499557 0.038194023
-0.041929774 0.013175569 -0.04540316 0.037705697 0.08392838 -0.03673601 0.05658495 -0.05445524
0.06101404 0.028055472 0.063501626 -0.04318862 0.036859788 -0.0038071927 0.08902453 -0.06943751
-0.047166307 -0.027333623 0.035846103 0.023921616 -0.119074084 0.03192285 0.017659822 -0.056246217
-0.07927659 0.04979507 0.019276464 0.017666496 0.050387006 0.027169157 -0.0012898198 -0.027049959
-0.061413884 -0.020939777 0.11314904 -0.009782784 -0.016952455 0.049493685 0.010195853 -0.04678809
-0.020896861 0.12456968 -0.002123001 0.045613535 -0.010271172 0.039389294 0.0025436496 0.063109204
0.07211333 0.0727927 0.07915703 -0.026189918 -0.019856803 0.01921879 0.058118563 0.06534217
0.04004397 0.022785025 0.004230962 0.101383574 -0.07144198 -0.0699731 -0.060464613 0.01726737
0.018428339 -0.12716727 -0.04518953 0.050560746 -0.03663891 0.0013266654 0.025217338 0.016361149
0.048874352 0.021778036 -0.029645856 0.025253044 0.022054628 0.011193302 -0.0474793 -0.000325422
0.06292739 -0.11152456 -0.15430948 -0.09433078 -0.011192565 -0.021863613 -0.053924378 -0.042047463
-0.035667825 0.053013027 0.028485682 -0.042071138 -0.04688586 0.06182952 -0.025154246 -0.01650695
-0.07272295 0.08592721 0.08745886 -0.020378012 0.022728577 0.047436547 -0.066194065 0.0024168196
0.03227238 0.06946739 -0.010597489 -0.018220145 0.00065778 -0.006874737 -0.034224372 -0.008200555
-0.13805853 -0.301132 -0.04332717 0.021772312 -0.1258977 -0.20488234 -0.026384389 0.05653518
-0.038596362 0.084359 -0.0033453666 -0.0698523 -0.089480974 -0.032606807 0.02666554 -0.06291562
-0.011572029 -0.008151038 -0.009543043 0.0027840312 0.03620267 0.0690615 -0.072616726 0.032561045
-0.014659555 5.7654892e-05 0.07342317 0.016064366 0.02500633 -0.04139742 0.010505255 0.030396076
0.06638501 -0.07265811 -0.017607603 0.028406298 -0.031526625 -0.03227301 0.03010568 0.013555254
-0.0054469327 0.023781776 0.026603412 0.033577517 0.05090027 0.010203153 0.03164253 0.019845974
-0.029204344 -0.03189241 0.0073719597 -0.040425327 0.033743065 -0.059179954 -0.13408162 0.032686047
-0.0019503926 -0.042078704 -0.0050653717 0.011857505 0.017022165 -0.2489314 0.0394064 0.063219145
0.06422647 0.011115831 -0.16689907 -0.024454843 -0.026955893 0.016113978 0.016895413 -0.06601396
-0.018992614 -0.15457042 -0.048344914 -0.0064340318 0.07907057 -0.024822004 -0.06458531 -0.08020397
-0.03864081 0.10518865 -0.030174691 -0.030481739 -0.011822102 -0.12723605 0.02588327 -0.014146376

weight f4 [2, 300]
00000000: fd83 ca3d 8522 363e bc38 0ebe 9bcd 613b
00000010: 408a 773e 13ad f13d d6ee 523e 8fe9 5ebd
00000020: 05da 4e3e 8e52 7cbd 1f85 c13b 6d20 5d3d
00000030: 32c4 25bd eef2 c93a 65e6 0b3e 7d04 383b
00000040: 4adb c03b 06a8 98bd 34be 7d3d 4275 03be
00000050: c3c4 0fbe de32 81bd 1050 e23a 7b4f d33d
00000060: 11f0 e13b f208 fd3d 985b a4be 5487 e53d
00000070: 6468 ce3c 5170 37be 2e8f 7cbc 5929 14be
00000080: 9508 303e c013 933d 4f5c 363e 464e 8e3e
00000090: aae8 9d3a 5c78 8a39 112a b6ba 4c16 adba
000000a0: 0636 473d 4fc0 113a f03a 063b 6bc0 53bb
000000b0: 6a1a 2e3d 7925 633e 0848 e63d fdea 36be
000000c0: e694 713e a178 023e 8808 273b 946c b7bc
000000d0: 5c26 0cbd 9d9b 853e 18a2 1bbe 7018 fd3d
000000e0: 0548 a03b 9cb3 a2be df36 823b 3264 363d
000000f0: 49bf f7bd 5083 bbbd fc60 173d e0d4 9abc
00000100: 9334 19b8 a0a9 403c f13a d7bd 7651 813e
00000110: 2255 233e dd30 413e 2ea3 b83c 7c3d 743c
00000120: 5aa3 ee3b f273 363d e594 6d3e 5c0c ba37
00000130: 45f8 5cbe 9303 91bc 511d 833e e3b0 ef3c
00000140: 9cda aebe b562 dcbd 36d9 c3bd d060 503d
00000150: d6a0 ce3d b139 933c defc 82be cb04 9a3e
00000160: 956d a6be ecd1 b53c 367c 4fbe 0269 b539
00000170: 82a7 d53a 127c d0bd 19f0 b1be 3e1f 98ba
00000180: 710d 41bd 10b2 683d e0ce 4ebe fef7 553d
00000190: 5c01 46bd 79ce 15be 6cb1 c0bd 942f 713e
000001a0: abc6 57be 50df 95bd 3d93 8fbd c49c 573e
000001b0: f5a2 593d 3557 f53c 8b8e 5ebd 5e60 4f3e
000001c0: 5510 683e 7a78 d23c 023f 223b 733d 02be
000001d0: cde4 3dbe 1f84 063c a3e9 2e3d 0ffe a63c
000001e0: 44eb eb3d 164a a6b9 d772 223e 3766 cf3d
000001f0: 424e 38be 29fc ddba 9418 9a3c a37a 99ba
00000200: f52a 313d 1701 aebc 0beb 87bb 2ed2 8bbd
00000210: ad19 3a3c 44c7 2f3e 78cd 893b be4f 37be
00000220: 4abf 873d ef2d 143d a2c1 2dbd 4659 653d
00000230: 6e95 21bb 3d8c 4c3e ee9b 853d 6ed5 53bd
00000240: 4c3c 593c 40e0 983d e3d4 423e a431 4dbe
00000250: b27d 72be 0357 ffbd eccd 453a 7577 abbe
00000260: 2b25 893d e91a ae3d daa3 b4bd b56a 2bbe
00000270: 58dc c8bb 35a7 cbbd 8712 183d 7ff9 cf3d
00000280: 0d38 d13c 05e0 e33d 9f85 9b3c 0992 e4ba
00000290: c710 bbbc 4d83 813e e328 7cbb 1384 2e3b
000002a0: 2ffb 49bd c651 2fbe fcef f2bc d590 95ba
000002b0: 4be6 e6bd b84b 0cbe d7c0 cebc 6595 9a3c
000002c0: afef d5bd 5658 14be c243 37be a1a4 d1bc
000002d0: 300b 8a3e 688e d1b9 123f 423c c3c5 bfbd
000002e0: 903b f8bc 20c9 5e3d a4a6 ecbd 3f0b 54be
000002f0: 863b ab3e 0e19 6a3b a24d d6bc 764d 0cbc
00000300: 2649 e43d 396c ebbd 4e06 9c3d 8250 04be
00000310: 9138 c4bc 990d 1bbc a90e fd39 24f1 203d
00000320: 1849 883d 245d c5bd 7c2d d6ba e10e d03d
00000330: 8e0c 48be 9280 b1bb b1cb 6a3e 6b53 86bb
00000340: 2677 f1bc 1e80 e8ba 364f d339 5894 4cbc
00000350: fc62 c7be 5f01 8a3c 71e0 023e be1a 11bd
00000360: 1f19 abbe d547 77be bc2e ee38 f2fc 0bbb
00000370: c794 ef3c d6c7 88bc 0176 d2bc 9356 9b3d
00000380: c755 c73a ee23 37be 48d3 733d 3c05 babe
00000390: bbe0 233d 0104 573e 9da0 dbbd 4505 c7bc
000003a0: 73fa a33e 2069 b93c 15f5 cb3d 3000 523d
000003b0: 09f4 7b3d fc13 1e3b 29f3 acbd 0866 1fbe
000003c0: 54fb f1b9 a6c5 87be f3ff e23a 2c70 13be
000003d0: 865d b83c 0ee9 64be 03c0 8c3c c213 cbbb
000003e0: 13ee e2bc f5b7 ba3c d16a a9bd 492a a13d
000003f0: c526 bebc adf9 14be d9c3 163c 7511 223e
0.09888456 0.17786606 -0.1388883 0.0034454826 0.24173832 0.118005894 0.20598921 -0.054421958
0.20200355 -0.061602168 0.005905762 0.053986 -0.04047031 0.0015407482 0.13662107 0.0028078847
0.0058855163 -0.07453923 0.06194897 -0.12837699 -0.14039902 -0.0630853 0.0017266292 0.10317894
0.006895073 0.12355222 -0.3210113 0.112074524 0.025196262 -0.17913939 -0.015414996 -0.14468898
0.17190774 0.071815014 0.1780865 0.27794093 0.0012047489 0.00026411086 -0.0013898035 -0.0013205498
0.048635505 0.0005559967 0.0020481907 -0.0032310735 0.04250566 0.22182263 0.112442076 -0.17863078
0.23591956 0.12741329 0.0025487263 -0.022390641 -0.03421627 0.26095286 -0.15198553 0.12358177
0.004891398 -0.31777656 0.0039738263 0.044529147 -0.120970316 -0.09155905 0.036957726 -0.018900335
-3.6527006e-05 0.011759192 -0.10509289 0.25257462 0.15950444 0.18866296 0.022538748 0.014907237
0.0072826566 0.044544168 0.2320133 2.2178683e-05 -0.21579082 -0.0177019 0.25608304 0.02925915
-0.3415116 -0.10761014 -0.09562914 0.050873578 0.10089271 0.017971845 -0.25583547 0.30081782
-0.3250548 0.022194825 -0.20262226 0.00034601247 0.0016300532 -0.101799145 -0.34753492 -0.0011605991
-0.04713196 0.05681044 -0.20196104 0.052238457 -0.04834114 -0.14629544 -0.094088405 0.23553306
-0.2107188 -0.07317984 -0.07010505 0.21055895 0.053133924 0.02994881 -0.05433516 0.20251605
0.2266248 0.025692213 0.0024756794 -0.12718754 -0.18544312 0.008210211 0.042703282 0.020384816
0.11519483 -0.00031717186 0.1586412 0.10126918 -0.17998603 -0.0016936111 0.018810548 -0.0011709522
0.043253858 -0.021240754 -0.0041478924 -0.06827198 0.011358661 0.17165858 0.004205402 -0.17901513
0.06628282 0.03617662 -0.04242099 0.05599334 -0.0024655717 0.19975372 0.06523882 -0.051717214
0.013259005 0.07464647 0.19026522 -0.20038468 -0.23680761 -0.12467768 0.00075456384 -0.33489576
0.06696542 0.085012265 -0.08820315 -0.16739924 -0.0061297826 -0.099440016 0.037127044 0.101550095
0.025539422 0.11126713 0.018984614 -0.0017438541 -0.022835148 0.25295487 -0.0038476519 0.0026629015
-0.049311813 -0.17121038 -0.02965545 -0.0011410961 -0.11274394 -0.1370076 -0.025238438 0.018870065
-0.10446107 -0.14486822 -0.17896941 -0.025591196 0.2696166 -0.00039969687 0.011855857 -0.09363892
-0.03030184 0.054391026 -0.11555222 -0.20707415 0.3344385 0.00357205 -0.026160065 -0.00856339
0.111467645 -0.11495251 0.0761839 -0.12921336 -0.023952754 -0.009463691 0.00048266843 0.03929247
0.066545665 -0.09636906 -0.001634046 0.10159088 -0.19536039 -0.005416938 0.22929265 -0.0040992997
-0.02947576 -0.0017738377 0.00040304073 -0.01248654 -0.38942707 0.016846357 0.1278093 -0.035425894
-0.33417603 -0.24148495 0.00011357429 -0.0021360484 0.029245747 -0.016696852 -0.025691034 0.07584872
0.0015208059 -0.178848 0.059527665 -0.3633212 0.04000924 0.20997621 -0.10723994 -0.024294505
0.32027015 0.022633135 0.09958855 0.05126971 0.061512027 0.0024120798 -0.084448166 -0.15566266
-0.00046154356 -0.2651798 0.001731871 -0.14398259 0.022505533 -0.22354528 0.017181402 -0.0061974237
-0.027701413 0.022792796 -0.08272327 0.078693934 -0.023211846 -0.14548369 0.009201967 0.15826972

bias f4 [2]
00000000: 5121 ad3d de1b 1ebd
0.0845362 -0.038600795
