HW3/actor_best.pth (torch, 74963 bytes, 7 tensors)

sigma f4 [2, 2]
0	0x3dbf4ada	0.09340449
1	0x00000000	0.0
2	0x00000000	0.0
3	0x3e55d472	0.20881823

weight f4 [128, 8]
0	0xbdf6a23d	-0.12042663
1	0x3d9336c5	0.07188181
2	0xbe164454	-0.14674503
3	0xbea45e5c	-0.3210324
4	0xbd9a278f	-0.075270765
5	0x3db8ef37	0.090300016
6	0xbcbc83ca	-0.02301206
7	0x3e9d9cfe	0.30783838
8	0xbdc4d8f6	-0.096116945
9	0x3cec0a3d	0.028813476
10	0xbd026ea4	-0.031843796
11	0xbdceefb1	-0.10104311
12	0xbec0229f	-0.37526414
13	0xbe8aaedc	-0.27086532
14	0xbdae5e2d	-0.08514056
15	0xbc9f3c06	-0.019437801
16	0x3e48f927	0.19626294
17	0x3e898a00	0.26863098
18	0xbe675142	-0.22589591
19	0xbe17f9ab	-0.14841335
20	0x3d793469	0.060840998
21	0x3e6c114d	0.23053475
22	0xbce8365a	-0.02834623
23	0x3eb2a51a	0.34891587
24	0xbda0fff4	-0.07861319
25	0x3c814ed2	0.015784655
26	0x3eacb883	0.3373452
27	0xbedc2829	-0.4299939
28	0xbe72a83d	-0.2369699
29	0xbdbb508d	-0.09146223
30	0xbe2cc290	-0.16871095
31	0x3e51612a	0.20447221
32	0xbe8925ae	-0.2678656
33	0xbe4e4956	-0.20145163
34	0xbe4d06bf	-0.20022105
35	0xbe950b35	-0.29110113
36	0xbe7b8bb9	-0.24565019
37	0x3e7540ac	0.23950452
38	0x3dc13660	0.09434199
39	0x3e192102	0.14953998
40	0x3cb2296c	0.021748267
41	0xbe366191	-0.17810656
42	0x3dd7f0ab	0.10543951
43	0xbeeddcae	-0.46457428
44	0xbe77dde3	-0.24205737
45	0xbdd752b1	-0.10513819
46	0x3e042222	0.12903646
47	0x3e157adb	0.14597647
48	0xbe030bda	-0.1279749
49	0x3c839f14	0.016067065
50	0x3e775f13	0.24157362
51	0x3eccce10	0.40000963
52	0x3db5113e	0.08841179
53	0x3ca2a905	0.019855985
54	0x3e984775	0.29742017
55	0xbe02204c	-0.12707633
56	0x3e2214ec	0.15828294
57	0xbe3a1295	-0.18171151
58	0xbe61eef5	-0.22063811
59	0xbe3d5297	-0.18488537
60	0x3de76bf8	0.1129989
61	0x3dd14790	0.102187276
62	0xbe24285a	-0.16031018
63	0x3e43bd16	0.191151
64	0x3e8897f7	0.2667844
65	0x3ce5f084	0.028068788
66	0x3d5f3996	0.054498278
67	0x3df8c786	0.12147431
68	0x3e35a516	0.17738757
69	0x3e9bcbfd	0.30429068
70	0xbe76bda5	-0.24095781
71	0xbd8d4d87	-0.06899553
72	0x3e0747b0	0.1321094
73	0x3e927b27	0.28609583
74	0x3e31fd42	0.17381766
75	0x3ed35587	0.4127619
76	0x3d19cd0a	0.037549056
77	0xbea21dbb	-0.31663308
78	0x3d9044dc	0.07044384
79	0xbe59f347	-0.21284209
80	0xbeb4a4df	-0.35282037
81	0x3e94e45b	0.2908047
82	0x3e6bd66c	0.23031014
83	0xbe93061d	-0.28715602
84	0x3d8a5284	0.0675402
85	0xbd899d37	-0.067194395
86	0xbd448ce0	-0.04798591
87	0xbe2ed953	-0.1707509
88	0x3e6bf4df	0.2304263
89	0xbdeb68a9	-0.11494572
90	0x3e045eff	0.12926863
91	0x3e6dbe27	0.23217069
92	0x3e52a5b7	0.20571028
93	0x3db387ce	0.08766137
94	0xbe912103	-0.28345498
95	0xbe3ae236	-0.18250355
96	0x3e9ef838	0.3104875
97	0x3e54f161	0.20795204
98	0xbe8cd543	-0.27506456
99	0xbe185eef	-0.14879964
100	0x3e9689d5	0.29402032
101	0x3e5474e7	0.2074772
102	0xbdeee158	-0.11664075
103	0xbcdcb132	-0.026939962
104	0xbea7506c	-0.32678545
105	0x3b6f79da	0.0036541135
106	0xbe723b85	-0.23655517
107	0xbe67c3bc	-0.2263326
108	0xbcad4b67	-0.021154119
109	0x3d9b9edb	0.07598659
110	0xbe0faadf	-0.14030026
111	0x3e837ea4	0.25682557
112	0xbe2f87d3	-0.17141657
113	0x3ebaa4c7	0.3645384
114	0x3e8719f3	0.26386985
115	0xbec3319d	-0.3812379
116	0xbd477089	-0.048691306
117	0xbe287c66	-0.16453704
118	0xbd1170e0	-0.035508037
119	0x3e1d8b28	0.15385115
120	0x3e2aecb5	0.16691859
121	0x3d4a2574	0.049352124
122	0x3c95827b	0.018250694
123	0x3e83222f	0.25612018
124	0xbecc9093	-0.3995405
125	0xbea6ff98	-0.32616878
126	0xbe53edd0	-0.20696187
127	0xbe6cd3e4	-0.23127705
128	0xbe198047	-0.1499034
129	0xbea1ca8b	-0.3159984
130	0xbd464947	-0.048409726
131	0x3dd15ecb	0.102231584
132	0xbe4e1b22	-0.20127538
133	0x3c9b9f9f	0.018997012
134	0x3e52bc06	0.20579538
135	0xbdda2ae1	-0.1065271
136	0xbc688237	-0.014191202
137	0xbd5f4e24	-0.05451788
138	0xbc3efb83	-0.011656645
139	0x3e90524e	0.28187793
140	0x3ea09df1	0.313705
141	0x3e4644fa	0.1936225
142	0x3ee0eda8	0.43931317
143	0x3cbc38b0	0.02297625
144	0xbe50b11b	-0.2038006
145	0xbd5c656d	-0.053807665
146	0x3e8081e2	0.25099093
147	0xbb9bc987	-0.0047542485
148	0xbe3262fc	-0.17420572
149	0xbe98d59a	-0.29850465
150	0xbea7a45b	-0.3274258
151	0xbf2d0753	-0.675893
152	0xbd8237d8	-0.063583076
153	0x3e4edead	0.20202132
154	0x3e1d9e50	0.15392423
155	0xbe9587c4	-0.29205143
156	0x3e67c13b	0.22632305
157	0xbe9294f8	-0.2862928
158	0xbdbfff93	-0.09374919
159	0xbe03d0a1	-0.12872554
160	0xbde85735	-0.113447584
161	0xbdeb0a23	-0.11476543
162	0xbe62cf3e	-0.22149369
163	0xbe9be02c	-0.30444467
164	0xbd8fa9cf	-0.0701481
165	0xbd8f2dd1	-0.06991161
166	0xbe9fc219	-0.31202772
167	0x3db3e482	0.08783819
168	0xbe7d4fb7	-0.2473744
169	0x3d40720c	0.046983764
170	0x3eb62d83	0.35581598
171	0xbd9af85e	-0.075669035
172	0x3e8de750	0.2771554
173	0x3dbe5447	0.092934184
174	0xbe90ac30	-0.2825637
175	0x3e92d65c	0.28679168
176	0xbc86f73b	-0.01647531
177	0xbe08b5c2	-0.13350585
178	0x3e9ddd94	0.30833113
179	0xbe696541	-0.22792532
180	0xbc00e42b	-0.0078668995
181	0xbe089e0b	-0.13341539
182	0x3e9d8cde	0.30771536
183	0x3e46e015	0.19421418
184	0x3da24fed	0.07925401
185	0x3d0c34fd	0.03423022
186	0x3cb77447	0.022394313
187	0xbe10ce83	-0.14141278
188	0xbec35eb9	-0.38158205
189	0x3de8d942	0.11369564
190	0x3e03ce35	0.1287163
191	0x3e2f810d	0.17139073
192	0xbe9c0c60	-0.3047819
193	0xbd224d89	-0.039624725
194	0xbe43df6a	-0.19128194
195	0xbe0ea49f	-0.13929985
196	0xbe19cf77	-0.15020548
197	0x3e3a2176	0.18176827
198	0xbe871a4d	-0.26387253
199	0xbce2bac0	-0.02767694
200	0x3c4bf99b	0.012449647
201	0x3e66e58b	0.22548501
202	0xbe98d454	-0.29849494
203	0xbea9a6e6	-0.33135146
204	0xbe21060a	-0.1572496
205	0x3eb4f3c4	0.35342228
206	0xbdee3af1	-0.11632336
207	0x3eb04173	0.34424934
208	0x3d1d3ace	0.03838616
209	0xbd370f59	-0.04469237
210	0x3d9adb4a	0.07561357
211	0xbd2e3d37	-0.042538848
212	0x3c16a7c5	0.009195273
213	0xbdd38320	-0.103277445
214	0x3c8c9999	0.017163085
215	0x3d9b8c9a	0.07595177
216	0xbea66f31	-0.32506707
217	0xbe6f6f9e	-0.23382422
218	0x3ea37e1c	0.3193215
219	0xbe6941f0	-0.2277906
220	0xbd9cfef7	-0.07665818
221	0x3e99abf6	0.30014008
222	0x3e3c0234	0.18360215
223	0x3dbf6f60	0.09347415
224	0xbee26654	-0.44218695
225	0x3d212bef	0.03934854
226	0xbe611f9e	-0.21984717
227	0xbe125d45	-0.14293392
228	0xbd651fd0	-0.055938542
229	0xbd3b0b66	-0.045665167
230	0x3cbe9726	0.023265433
231	0x3ea6bed8	0.32567477
232	0x3d6a133d	0.057147253
233	0x3ea8cc84	0.32968533
234	0x3e86b1ce	0.2630753
235	0xbe123c80	-0.14280891
236	0x3dc731f9	0.097263284
237	0xbea7c295	-0.32765642
238	0xbe0a0568	-0.13478625
239	0x3e4fa5bc	0.20278066
240	0x3dcd9202	0.100376144
241	0x3e7edaba	0.24888125
242	0xbe002cbb	-0.12517063
243	0x3d8d3f5e	0.06896852
244	0x3e207534	0.1566971
245	0xbebab8d1	-0.3646913
246	0x3eb56863	0.35431203
247	0xbe734dd7	-0.23760162
248	0xbb50fe86	-0.003188999
249	0xbd8b9db4	-0.06817189
250	0xbe3c617b	-0.18396561
251	0x3dbd99f0	0.09257877
252	0x3e8c307a	0.27380735
253	0xbe100800	-0.14065552
254	0xbe07638e	-0.13221571
255	0xbdce839b	-0.100836955

bias f4 [128]
0	0xbe11f90d	-0.14255162
1	0xbecc1eb0	-0.39867163
2	0xbe16e644	-0.14736277
3	0x3df958a3	0.12175109
4	0xbe226c42	-0.1586161
5	0x3e7d1eab	0.2471873
6	0x3e9ddc62	0.308322
7	0x3e13489c	0.14383167
8	0x3d373d3f	0.044736143
9	0xbdf3da7d	-0.11906908
10	0xbd28c3bb	-0.041202288
11	0x3e22a16c	0.1588189
12	0xbe0b603d	-0.1361093
13	0xbd988d93	-0.07448878
14	0xbe802e15	-0.25035158
15	0x3e7b0db0	0.2451694
16	0xbe80b41b	-0.2513741
17	0x3e991289	0.29896954
18	0x3cb9ab5b	0.022664716
19	0xbe4713cf	-0.1944115
20	0x3dff0356	0.12451808
21	0x3dfd088c	0.12355146
22	0x3e89cd17	0.26914284
23	0x3d6956c5	0.056967515
24	0xbecabe89	-0.39598492
25	0x3e628121	0.22119571
26	0xbe1fc916	-0.15604052
27	0xbe51b0d9	-0.20477618
28	0x3db5b8e5	0.088731565
29	0x3e8aaf20	0.27086735
30	0xbea77b62	-0.3271132
31	0xbd23f813	-0.040031504
32	0x3e47178d	0.19442578
33	0x3e386f39	0.18011178
34	0x3e99f93c	0.30072963
35	0xbd41d571	-0.047322694
36	0xbe312e7f	-0.17302893
37	0x3ebb24d7	0.36551544
38	0x3e829e4e	0.25511402
39	0x3e9779e1	0.29585174
40	0xbc8fb94f	-0.017544417
41	0xbddabb1e	-0.10680221
42	0xbd94c498	-0.0726406
43	0xbec0b999	-0.376416
44	0x3e302f8f	0.17205642
45	0x3e9ded5f	0.30845162
46	0x3e04ee57	0.12981544
47	0x3c86c8aa	0.016453106
48	0x3e49b677	0.19698511
49	0xbe916abd	-0.28401747
50	0x3eb76ddd	0.35826007
51	0xbeb8e1df	-0.36109826
52	0xbecf2a81	-0.40462115
53	0xbd7ca038	-0.061676234
54	0x3e7c8a3e	0.2466211
55	0xbcc03128	-0.02346094
56	0x3e4a9c5c	0.19786209
57	0xbe3beeae	-0.18352768
58	0x3d3ff897	0.046867933
59	0x3d6861b4	0.056733802
60	0x3ddde497	0.10834616
61	0x3e6c0077	0.23047052
62	0x3de9c9e0	0.11415458
63	0x3cbd28b6	0.023090702
64	0x3c9cb256	0.019128006
65	0xbe920564	-0.28519738
66	0xbdb1b25d	-0.08676598
67	0x3e8d0016	0.27539128
68	0xbe030231	-0.12793805
69	0x3e779c8d	0.24180813
70	0xbe47e0df	-0.19519375
71	0x3d144398	0.036197275
72	0x3e869abc	0.26289928
73	0xbec9edd7	-0.3943927
74	0xbdcf30be	-0.10116719
75	0xbdaf6073	-0.08563318
76	0x3b9c4c15	0.004769812
77	0xbe1c8991	-0.15286852
78	0x3ecbb694	0.39787734
79	0x3ea301e2	0.31837374
80	0xbe66fb97	-0.22556911
81	0x3e1c86f3	0.15285854
82	0xbe7a86f2	-0.2446554
83	0xbe3313bf	-0.17488001
84	0x3e359855	0.17733891
85	0xbb31028a	-0.002700957
86	0xbe32ace8	-0.17448771
87	0xbed0b19e	-0.4076051
88	0xbd305655	-0.043051083
89	0x3e0b4cdb	0.13603537
90	0xbe85e013	-0.26147518
91	0xbedcde85	-0.4313852
92	0x3d43e15a	0.047822334
93	0xbdf5549f	-0.11979031
94	0xbe6085ee	-0.2192609
95	0xbe17021a	-0.14746895
96	0xbda79733	-0.08183136
97	0xbe9fbb7b	-0.31197724
98	0xbe7bd2b6	-0.24592099
99	0x3c8b5f5a	0.01701324
100	0xbec09a44	-0.37617695
101	0xbde3b976	-0.11119358
102	0xbe8cb2b4	-0.2748009
103	0xbe86c186	-0.26319522
104	0x3d91bace	0.07115708
105	0xbe87d59f	-0.26530167
106	0xbe5ed5e6	-0.21761283
107	0x3e7038a4	0.23459107
108	0x3dbef547	0.09324127
109	0x3ed63bba	0.41842443
110	0x3da6f1c0	0.08151579
111	0xbd56afc8	-0.05241373
112	0x3e020711	0.12698008
113	0xbdb6c884	-0.08924964
114	0x3ea388f6	0.3194043
115	0xbeb8aefb	-0.36071
116	0xbd3db46d	-0.046314646
117	0x3e08d014	0.13360626
118	0xbe0c5a99	-0.13706435
119	0xbe95c742	-0.29253584
120	0x3e912208	0.28346276
121	0xbe9002e4	-0.28127205
122	0x3b8055eb	0.003916492
123	0xbe66a88c	-0.22525233
124	0x3e5d6894	0.21621925
125	0xbeaeca28	-0.34138608
126	0x3e195ce3	0.1497684
127	0xbed1ce03	-0.40977487

weight f4 [128, 128]
0	0xbdbb5b2e	-0.091482505
1	0xbd70a64e	-0.05875235
2	0x3d9aef4c	0.075651735
3	0xbde31f25	-0.11089925
4	0xbd2123f7	-0.03934094
5	0x3cacd0b0	0.021095604
6	0xbd8d0e71	-0.0688752
7	0x3d2262c2	0.039644964
8	0xbdc6145e	-0.096718535
9	0xbdd800a6	-0.10546999
10	0xbd8c0dbe	-0.068385586
11	0x3caf62c4	0.0214094
12	0x3c13d1dd	0.009022203
13	0xbdf159f6	-0.11784737
14	0x3d8f07da	0.069839194
15	0xbd9d9138	-0.07693714
16	0xbd14c032	-0.036316104
17	0xbd83e070	-0.064392924
18	0xbdb70f9c	-0.08938524
19	0x3d13b568	0.036061674
20	0xbda652b7	-0.08121245
21	0xbd9ac56e	-0.07557188
22	0xbce98a6d	-0.02850839
23	0x3b3a3349	0.0028411916
24	0x3cc51a3c	0.024060361
25	0x3da33072	0.079682246
26	0xbd61b943	-0.05510832
27	0xbcc3c0e5	-0.02389569
28	0xbd734d76	-0.059400044
29	0xbd8c8f59	-0.06863279
30	0xbb45e343	-0.0030195273
31	0xbdfa44bf	-0.122201435
32	0x3ca70e9c	0.020392708
33	0xbdd4c7d8	-0.1038968
34	0xbd490f56	-0.04908689
35	0x3d89ab0f	0.0672208
36	0x3cf3e834	0.029773809
37	0xbcf78f54	-0.030219711
38	0xbd8c298f	-0.06843864
39	0x3d1a8028	0.037719876
40	0x3ce798f6	0.02827118
41	0x3d7a68fb	0.061135273
42	0xbcfab217	-0.030602498
43	0xbccd6204	-0.025071152
44	0x3c9f35ca	0.019434828
45	0xbd6fb4f3	-0.058522176
46	0xbd1ec689	-0.038763557
47	0xbd2c84af	-0.042118724
48	0x3cd61091	0.026130946
49	0x3d1f78ab	0.038933437
50	0x3c54b62f	0.012982889
51	0xbdeb0271	-0.11475075
52	0xbddb3d02	-0.10704996
53	0xbdc1ac48	-0.09456688
54	0xbe2a4bb8	-0.16630447
55	0x3ccacb1f	0.024755059
56	0xbcb5944f	-0.022165446
57	0xbe10024a	-0.14063373
58	0xbdc46af5	-0.09590713
59	0xbdbec72c	-0.09315333
60	0x3cf0503c	0.029335134
61	0xbdf342e4	-0.11877993
62	0xbe0818e8	-0.13290751
63	0xbe0bba83	-0.13645367
64	0xbcb43625	-0.021998474
65	0xbc85ef0b	-0.016349336
66	0xbdeb6b67	-0.11495095
67	0x3d4fe2d1	0.05075342
68	0xbc06197b	-0.008184786
69	0x3ba57eb7	0.005050506
70	0x3d16915c	0.03675972
71	0xbd2c8126	-0.042115353
72	0xbd8692c6	-0.065709636
73	0x3c614280	0.013748765
74	0xbdd567c8	-0.10420185
75	0xbd2308f7	-0.03980347
76	0x3c93285e	0.017963585
77	0xbddca476	-0.10773556
78	0xbc2d0136	-0.010559371
79	0x3c88608f	0.016647605
80	0xbde2592f	-0.11052167
81	0xbd7a1e60	-0.061064124
82	0x3d1122ad	0.03543346
83	0xbdd68b04	-0.10475734
84	0xbd217dd1	-0.03942663
85	0xbb9f3328	-0.004858393
86	0x3d06875e	0.03284394
87	0xbd9d3c10	-0.07677472
88	0xbd195264	-0.03743209
89	0x3a716f23	0.0009209981
90	0x3dff3978	0.12462133
91	0xbdbe1d60	-0.092829466
92	0xbd087285	-0.03331234
93	0xbd2ae701	-0.04172421
94	0xbd961bfe	-0.07329558
95	0xbdcd4596	-0.10023038
96	0x3d4fc03f	0.05072045
97	0xbc9020d5	-0.01759378
98	0x3d8f2e6f	0.069912784
99	0x3dd173ee	0.1022719
100	0x3bb2411d	0.005439891
101	0xbe0f7a03	-0.14011388
102	0x3c02a9d8	0.007975064
103	0x3c101dad	0.008796138
104	0xbc1f4a64	-0.009722326
105	0xbdff8982	-0.124773994
106	0xbc26d16a	-0.010181764
107	0x3da8f742	0.08250286
108	0xbb821261	-0.003969476
109	0xba96dba3	-0.0011509549
110	0x3d280b04	0.04102613
111	0xbd896288	-0.067082465
112	0x3cea9ae2	0.028638307
113	0xbc329716	-0.0109002795
114	0x3d4fac3c	0.050701365
115	0x3bb1bc4b	0.0054240576
116	0x3dcb1b54	0.09917322
117	0x3d6dbbdb	0.05804048
118	0xbd46510e	-0.048417144
119	0x3cb6017b	0.022217503
120	0xbdd7dfb8	-0.10540718
121	0xbd9de5f0	-0.07709873
122	0x3c967b8d	0.01836946
123	0xbd6820ea	-0.056672014
124	0x3c8bfd35	0.017088512
125	0xbbdc578e	-0.0067243045
126	0x3c805408	0.01566507
127	0x3baf8382	0.005356253
128	0xbc44713d	-0.011989889
129	0x3d3d98db	0.046288352
130	0xbcac4a40	-0.021031499
131	0x3d8f1aeb	0.06987556
132	0x3dd53525	0.10410527
133	0x3c43d28b	0.011952053
134	0xbdaeff2c	-0.08544764
135	0x3d0d9b61	0.03457201
136	0xbd7cbff7	-0.06170651
137	0xbde0f030	-0.10983312
138	0x3b86ea1b	0.004117263
139	0x3cad9881	0.021190884
140	0xbd89408b	-0.06701764
141	0x3d96a8a3	0.07356384
142	0xbb04f39e	-0.0020286809
143	0xbc7a4a94	-0.01527657
144	0x3d98be23	0.07458141
145	0xbdc77838	-0.09739727
146	0x3e0e9a00	0.13925934
147	0xbe13019b	-0.14356081
148	0x3d63fb40	0.055659533
149	0xbd20461d	-0.039129365
150	0x3de16248	0.11005074
151	0x3e018baf	0.12650941
152	0x3df9b6cb	0.12193068
153	0x3dc7db6d	0.09758649
154	0xbdd4019e	-0.10351871
155	0xbdc5ed4f	-0.09664404
156	0xbceaf542	-0.028681401
157	0xbccd4e3b	-0.025061717
158	0x3c6e2fa8	0.014537729
159	0xbd9ed51f	-0.077554934
160	0x3d514bd5	0.05109771
161	0xbdd40d94	-0.10354152
162	0xbc860f0a	-0.016364593
163	0x3cad8465	0.021181295
164	0xbe15bb82	-0.1462231
165	0xbb02d974	-0.0019966038
166	0x3ccd7149	0.025078433
167	0x3d94d651	0.0726744
168	0xbd361229	-0.044450913
169	0xbcc66561	-0.024218263
170	0x3c538449	0.012909957
171	0xbca38ebd	-0.019965524
172	0xbc89c003	-0.016815191
173	0x3a1a16b0	0.00058780145
174	0x3d5445bb	0.051824313
175	0xbdbf5fc4	-0.09344438
176	0x3dc5262e	0.09626423
177	0xbddc6379	-0.107611604
178	0x3c8b5974	0.017010428
179	0xbdedafda	-0.11605807
180	0x3d65e8a1	0.056130055
181	0x3dd272c2	0.102757946
182	0xbdc716e4	-0.09721163
183	0x3d1bff08	0.038085014
184	0xba9335c9	-0.0011231239
185	0x3cb8aec3	0.02254427
186	0x3d936310	0.07196629
187	0x3da3ea62	0.08003689
188	0x3d159bcb	0.03652553
189	0xbd3337a8	-0.04375425
190	0x3d6ec863	0.058296572
191	0x3e137b36	0.1440247
192	0x3d0c2816	0.034217916
193	0x3ccd0c59	0.025030302
194	0x3e031a33	0.12802963
195	0x3c481f0e	0.012214435
196	0xbcf2c281	-0.029633762
197	0x3e0ea4d2	0.13930061
198	0xbd3bdbdd	-0.045863975
199	0x3e008875	0.12552054
200	0x3dbbf918	0.0917837
201	0x3d335845	0.043785352
202	0x3d34ce6c	0.04414217
203	0x3df3135c	0.11868927
204	0xbd97f1b4	-0.07419148
205	0xbd88c0c1	-0.0667739
206	0x3daa8350	0.08325827
207	0x3d85f521	0.06540895
208	0x3dcf768d	0.10130034
209	0x3d2d5310	0.042315543
210	0xbc3947fb	-0.011308665
211	0x3d285e5d	0.041105617
212	0x3d4ee7ed	0.05051415
213	0x3c1444a3	0.009049567
214	0x3b7fc3a9	0.0039026535
215	0x3d3e7a2c	0.04650323
216	0xbdac701c	-0.08419821
217	0x3e0cd45f	0.13752888
218	0x3ca1627c	0.019700281
219	0x3da09419	0.078407474
220	0xbcf94841	-0.030429961
221	0x3d8151b6	0.06314413
222	0xba40211f	-0.0007329154
223	0x3d516c59	0.05112872
224	0xbd02ca16	-0.031931005
225	0x3dba47c3	0.09095719
226	0x3d4a3f48	0.049376756
227	0x3d8e5fe5	0.06951884
228	0x3d5c4898	0.05378017
229	0xbc6441a9	-0.01393167
230	0xbd3e8dff	-0.046522137
231	0xbd9a7ba9	-0.075431176
232	0x3e127863	0.14303736
233	0x3d1ef3ae	0.03880661
234	0x3d7b34f3	0.061329793
235	0xbd8da2b4	-0.06915799
236	0x3d798465	0.060917277
237	0x3cc9f046	0.024650704
238	0xbd8376db	-0.06419154
239	0x3cd5efff	0.026115416
240	0x3c2fcb4d	0.010729623
241	0x3dddca46	0.10829596
242	0x3de7999a	0.11308594
243	0xbe04204f	-0.1290295
244	0x3da491d2	0.080356255
245	0xbdcb5b3c	-0.09929511
246	0xbd0dbb3e	-0.034602396
247	0xbb3d3b57	-0.002887448
248	0x3d861cb3	0.06548443
249	0xbdcf2735	-0.101149
250	0xbd5f3145	-0.054490346
251	0x3df91f62	0.12164189
252	0xbd5398ae	-0.05165928
253	0xbcec051e	-0.028811034
254	0x3d16aa14	0.036783293
255	0xbd84496e	-0.06459318

bias f4 [128]
0	0xbd80188f	-0.06254684
1	0x3e018b35	0.1265076
2	0xbc183fb9	-0.009292536
3	0xbda4dd97	-0.080500774
4	0xbd21997e	-0.039453022
5	0x3de02d2f	0.10946118
6	0x3ca8d1c4	0.020607837
7	0x3cab3061	0.020897092
8	0x3acc26b1	0.0015575496
9	0xbdba3c5f	-0.09093546
10	0xbde832b5	-0.113377966
11	0x3e347bb8	0.1762532
12	0x3dd1e433	0.10248604
13	0x3cf42fa2	0.02980787
14	0xbdab5c3a	-0.083672
15	0xbd371ce4	-0.044705287
16	0xbcefe024	-0.029281683
17	0x3e04164f	0.12899135
18	0x3abb4d69	0.0014290038
19	0xbbc9df67	-0.006160665
20	0xb80b2161	-3.317127e-05
21	0xbda2d8db	-0.07951518
22	0x3c18869b	0.009309436
23	0xbd69eb14	-0.057108954
24	0x3d1464a1	0.03622878
25	0x3dc59f22	0.09649493
26	0x3d05d30f	0.032671984
27	0xbd123e76	-0.0357041
28	0xbd1a83a0	-0.037723184
29	0x3c16528c	0.009174954
30	0xbdc66b50	-0.09688437
31	0x3bf4ec6f	0.007474474
32	0x3dd43ad7	0.10362785
33	0xbd67f887	-0.0566335
34	0xbe005abc	-0.12534612
35	0x3d126194	0.03573759
36	0xbda7b5ab	-0.08188947
37	0x3ddf9b49	0.1091829
38	0x3c163eff	0.009170293
39	0xbe0b478c	-0.13601512
40	0xbba28192	-0.0049592936
41	0x3dade9f5	0.084918894
42	0xbc039687	-0.008031494
43	0xbd926136	-0.07147448
44	0xbc4a57e0	-0.012350053
45	0x3e0c204b	0.13684194
46	0x3d514c2b	0.05109803
47	0x3d5ad6d0	0.053427517
48	0x3c287ada	0.010283196
49	0xbdc0cf1d	-0.09414504
50	0xbdbadff6	-0.091247484
51	0xbd8d9698	-0.06913489
52	0xbd8e723b	-0.069553815
53	0xbd05e4b2	-0.032688804
54	0x3d926504	0.071481735
55	0xbd3cd2b7	-0.04609939
56	0x3d252c73	0.040325593
57	0xbdcb2df8	-0.09920877
58	0xbc1cffb3	-0.009582448
59	0xbda68264	-0.08130339
60	0xbd8f8c45	-0.07009176
61	0x3d8038d3	0.06260838
62	0xbdd9f5aa	-0.1064256
63	0xbe0f9a6a	-0.14023748
64	0xbd3abda7	-0.045591023
65	0xbd1e4e86	-0.038649105
66	0xbe1738a1	-0.14767696
67	0xbdca14c3	-0.09867241
68	0xbd873903	-0.06602671
69	0x3df3d231	0.11905325
70	0x3da5b3ff	0.08090972
71	0x3dbdbdeb	0.092647396
72	0xbd5fa633	-0.05460186
73	0xbdc4dadc	-0.096120566
74	0x3d1d8978	0.03846118
75	0x38fed6ed	0.00012151697
76	0xbe17211c	-0.14758724
77	0x3e028856	0.1274732
78	0xbcc1cec2	-0.02365816
79	0xbdd80293	-0.10547366
80	0xbdfc57d3	-0.12321439
81	0x3dbed0d4	0.093171746
82	0xbceee82c	-0.029163443
83	0xbd110c77	-0.035412278
84	0x3d66b704	0.05632688
85	0x3d43241e	0.047641866
86	0x3dad6cdd	0.0846803
87	0x3b44734d	0.0029975951
88	0xbbefd0c4	-0.007318588
89	0xbd61e048	-0.055145532
90	0xbb0877fc	-0.002082347
91	0xbda70fcb	-0.08157309
92	0x3df32075	0.11871425
93	0xbc026899	-0.007959508
94	0x3d9b5893	0.075852536
95	0xbdd23c77	-0.10265439
96	0x3d648a86	0.05579617
97	0xbe022122	-0.12707952
98	0xbc5d036b	-0.013489584
99	0xbdf3e7b5	-0.11909429
100	0x3ce099f7	0.027417166
101	0x3e32d67a	0.17464629
102	0xbe02c146	-0.1276904
103	0xbd72eb1f	-0.05930626
104	0x3dc1fae4	0.09471682
105	0x3e324a18	0.17411077
106	0xbc855b9d	-0.016279036
107	0xbd0cedcc	-0.03440647
108	0xbdeb2fcf	-0.11483728
109	0xbca806fe	-0.020511147
110	0x3dd68b83	0.104758285
111	0x3dd6b501	0.104837425
112	0xbdbef13f	-0.09323358
113	0xbe11cc97	-0.14238201
114	0xbdaea2c0	-0.08527136
115	0x3d13cc5b	0.03608356
116	0x3e1fd6f5	0.15609343
117	0xbe03cc82	-0.12870982
118	0xbdf3dd5a	-0.11907454
119	0x3db42b52	0.08797325
120	0x3dd27a9c	0.10277292
121	0x3d1a4402	0.037662514
122	0x3e003d27	0.12523328
123	0x3c64a87b	0.0139561845
124	0x3d0f8ca3	0.03504623
125	0xbe00cf1d	-0.12579007
126	0x3d070094	0.032959536
127	0xbdd6478a	-0.10462864

weight f4 [2, 128]
0	0x3cb434ca	0.021997828
1	0x3c55d9dc	0.01305243
2	0xbd1b1531	-0.037862007
3	0x3cf0f0b3	0.02941165
4	0xbe2ef230	-0.17084575
5	0x3d4621ef	0.048372205
6	0xbca6e960	-0.020374954
7	0x3de0906f	0.109650485
8	0xbd672533	-0.05643196
9	0xbb487ef9	-0.003059326
10	0xbd2316f0	-0.039816797
11	0xbd671c6f	-0.0564236
12	0x3d1be799	0.038062666
13	0x3c21105f	0.009830563
14	0x3c81bea6	0.015837979
15	0xbca149f9	-0.019688593
16	0xbc338a2d	-0.010958237
17	0x3c950be6	0.01819415
18	0xbd81bb1f	-0.06334519
19	0xbdf14a9a	-0.11781807
20	0xbc32dc95	-0.010916849
21	0x3c13bb32	0.009016799
22	0xbc29e986	-0.010370618
23	0x3c0b9109	0.008518466
24	0x3d1fab51	0.03898174
25	0xbc996542	-0.018725041
26	0xbd3f402e	-0.046692066
27	0x3d44b14f	0.048020657
28	0xbc394911	-0.011308924
29	0x3e2f2835	0.17105182
30	0xbd974ca2	-0.073876634
31	0xbe07f5a9	-0.13277306
32	0xbb0fb8ae	-0.0021930146
33	0xbd5b5795	-0.05355032
34	0xbcf95d05	-0.030439863
35	0x3d01ed51	0.031720463
36	0xbda473c4	-0.08029893
37	0x3c55c1c7	0.013046688
38	0xbde78f15	-0.113065876
39	0x3b3b2462	0.0028555621
40	0x3c6f373c	0.014600571
41	0x3bb767ef	0.0055971066
42	0xbe065c92	-0.1312125
43	0xbcb46ae3	-0.022023624
44	0xbd55f0f5	-0.052231748
45	0xbd18fe69	-0.037352
46	0xbd8247e0	-0.06361365
47	0xbc590048	-0.013244696
48	0xbbd16ae2	-0.0063909153
49	0xbe054560	-0.13014746
50	0xbc82cb4c	-0.01596608
51	0xbdd49e6e	-0.103817806
52	0xbce2424e	-0.027619507
53	0xbb6b3fab	-0.0035896103
54	0xbd9cedcc	-0.07662544
55	0x3c54c8d3	0.012987333
56	0xbda754ea	-0.08170493
57	0x3d5a7f02	0.05334378
58	0xbb1142d0	-0.0022165067
59	0xbda0d266	-0.0785263
60	0x3e2a17bb	0.16610615
61	0x3cccf358	0.02501838
62	0x3c46af1b	0.012126709
63	0xbc407fb6	-0.011749199
64	0xbd96e47a	-0.07367797
65	0x3bf36fa2	0.007429079
66	0x3d544882	0.05182696
67	0x3db1527f	0.08658313
68	0xbdf8489f	-0.121232264
69	0xbde31b1d	-0.11089156
70	0x3c60dcf7	0.013724557
71	0x3e1f3326	0.15546855
72	0xbd7fa1cb	-0.062410157
73	0xbca4afc4	-0.020103343
74	0xbdf9c344	-0.12195447
75	0xbc734df1	-0.014850126
76	0xbd584731	-0.05280227
77	0x3c9b0a86	0.018925916
78	0x3c4ed463	0.012623879
79	0xbdbe4a1a	-0.092914775
80	0x3ce175ad	0.027521932
81	0x3e04879f	0.1294236
82	0xbda934c3	-0.082620166
83	0x3c53d8e8	0.012930132
84	0xbd305839	-0.043052886
85	0xbcb04c86	-0.021520864
86	0xbc807fbd	-0.01568591
87	0x3e164a4d	0.14676781
88	0xbdffb826	-0.124862954
89	0xbd981ce4	-0.074273854
90	0xbdd4dae8	-0.103933156
91	0x3dd79eee	0.1052836
92	0xbc280a3f	-0.010256349
93	0x3d21a895	0.039467413
94	0xbd414c87	-0.047192123
95	0xbb1bf042	-0.0023794328
96	0xbd9b2693	-0.07575717
97	0x3ce81f67	0.028335286
98	0xbbceec4a	-0.006314789
99	0x3c86fa68	0.016476825
100	0xbdb1c546	-0.08680205
101	0x39c5acdf	0.00037703567
102	0x3d56a23e	0.05240082
103	0x3e0b229a	0.13587418
104	0x3d02f71b	0.03197394
105	0x3e3b4995	0.18289788
106	0xbce217cd	-0.02759924
107	0x3e6b5fa7	0.22985707
108	0x3d98a8ff	0.074541084
109	0xbc723819	-0.014783883
110	0xbc321c2d	-0.010870975
111	0x3ca48c38	0.020086393
112	0x38cd740b	9.7967764e-05
113	0x3a07c5c5	0.0005179311
114	0x3ccc487f	0.024936913
115	0x3c2248d6	0.009905061
116	0xbd4054b6	-0.046955787
117	0x3d09125e	0.033464782
118	0xbd7f657b	-0.06235264
119	0x3c295a5b	0.010336484
120	0x3ce80884	0.028324373
121	0x3c93c57e	0.018038508
122	0xbc9677a0	-0.018367589
123	0xbdcc09ca	-0.099628046
124	0xbca47bca	-0.020078558
125	0x3d66c948	0.0563443
126	0xbdb7933f	-0.08963632
127	0xbd540dd8	-0.051771015
128	0xbdc47084	-0.09591773
129	0x3d45246d	0.04813044
130	0x3d7b32b7	0.061327662
131	0x38d9809c	0.00010371322
132	0xbd0552bf	-0.032549616
133	0x3cee8557	0.029116316
134	0x3cb37844	0.021907933
135	0x3df87ddb	0.1213338
136	0x3cf9ae1c	0.03047853
137	0x3dbe00f5	0.09277526
138	0x3d46ade2	0.04850567
139	0x3cc13853	0.023586428
140	0x3d830702	0.06397821
141	0xbc978e95	-0.018500606
142	0xbdce53ee	-0.10074602
143	0x3d35add6	0.044355236
144	0xbb45a7b8	-0.0030159783
145	0xbc04f23d	-0.008114395
146	0xba0fb218	-0.0005481555
147	0x3c21d686	0.0098778065
148	0xbd761d73	-0.06008668
149	0x3c71a549	0.01474888
150	0x3d133858	0.035942405
151	0x3da8c96b	0.082415424
152	0x3d9932e1	0.074804075
153	0x3dde10bd	0.10843036
154	0xbd28441d	-0.041080583
155	0x3c071e7f	0.008247017
156	0x3d5ade66	0.053434752
157	0x3e4b03a7	0.19825612
158	0x3d626f62	0.055282004
159	0xbd773760	-0.060355544
160	0x3c686d8c	0.014186274
161	0xbcb96e0b	-0.02263548
162	0xbd5769cf	-0.05259114
163	0x3d585630	0.05281657
164	0x3d17afeb	0.037033003
165	0xbd4967a3	-0.0491711
166	0x3c91e68f	0.017810134
167	0x3d5539b0	0.05205697
168	0xbccfc566	-0.025362682
169	0xbc7454a0	-0.014912754
170	0xbd092bf2	-0.033489175
171	0xbd2ea6eb	-0.042639654
172	0xbcf69915	-0.030102292
173	0x3cd1671e	0.025561865
174	0x3d1768c4	0.036965147
175	0x3dac3602	0.08408739
176	0xbd80043a	-0.06250806
177	0xba7d5a14	-0.0009664607
178	0x3da97598	0.08274382
179	0x3c63d9bc	0.013906892
180	0xbd900a54	-0.0703322
181	0x3cdd7317	0.027032418
182	0x3dcc7294	0.099827915
183	0x3d1b46af	0.037909206
184	0x3d6ef11f	0.05833542
185	0xbbc88e50	-0.0061204806
186	0xbc58695a	-0.0132087115
187	0xbb27a6e2	-0.0025581648
188	0x3cbab6ae	0.022792187
189	0xbce71841	-0.028209807
190	0x3c1b8994	0.00949325
191	0x3bfbdcf7	0.007686253
192	0x3d02758a	0.031850375
193	0x3c6ba98d	0.014383686
194	0x3b60ed88	0.0034321267
195	0xbca37dfc	-0.019957535
196	0x3d58f0ad	0.0529639
197	0xbd6e19dd	-0.058130134
198	0xbda35886	-0.07975869
199	0xbdc1d3a2	-0.09464194
200	0xbcad1a27	-0.021130634
201	0x3db76245	0.0895429
202	0xbcb0d617	-0.021586461
203	0xbd3c040a	-0.04590229
204	0xbc652c3b	-0.013987596
205	0xbd4853b1	-0.04890794
206	0x3cbcc7ff	0.023044584
207	0xbbfa6e91	-0.007642575
208	0x3d4b04b7	0.049565043
209	0x3e2c045b	0.16798536
210	0x3c9c6cce	0.01909485
211	0xbae4f88d	-0.0017469093
212	0x3d59ac18	0.053142637
213	0x3d1940ba	0.037415244
214	0xbd67e0cb	-0.056610864
215	0x3c9c9bda	0.019117285
216	0xbd877e44	-0.0661588
217	0x3b81586c	0.0039473083
218	0xbc90e636	-0.017687898
219	0x3c66b67f	0.014081596
220	0x3d68f7e9	0.05687705
221	0xbcbfcc46	-0.023412835
222	0x3ec1fb8e	0.37887233
223	0x3d99eddd	0.07516072
224	0x3d5af7c3	0.05345894
225	0xbce25477	-0.027628167
226	0xbca2477c	-0.019809477
227	0xbcd747b5	-0.02627931
228	0x3d724fa9	0.059158
229	0x3d1e3618	0.038625807
230	0x3d7e56c3	0.06209446
231	0x3c91a2cb	0.017777821
232	0xbc2097b1	-0.009801791
233	0xbea26bae	-0.31722778
234	0xbd7ab622	-0.06120885
235	0xbc6e8b6c	-0.014559608
236	0xbcb1c78a	-0.021701593
237	0xb9a12b0a	-0.0003074038
238	0x3c8eab43	0.017415648
239	0xbce16570	-0.02751419
240	0xbd418e2a	-0.04725472
241	0x3cbc88e7	0.023014499
242	0x3c9ccf54	0.01914183
243	0xbd8dc372	-0.06922044
244	0x3be424c4	0.0069623906
245	0x3cabbfc9	0.020965474
246	0x3c325655	0.010884841
247	0xbd896a72	-0.06709756
248	0xbd1c2596	-0.038121782
249	0x3ab6c9cc	0.0013945638
250	0xbd63a8b7	-0.05558082
251	0x3d6ac0e1	0.05731285
252	0xbd434c60	-0.04768026
253	0x3d4615ff	0.04836082
254	0xbd66fa0e	-0.056390814
255	0x3c1a23b0	0.009407923

bias f4 [2]
0	0xbcdf6061	-0.027267637
1	0xbd17b016	-0.037033163
